actor.pth (torch_old, 843269 bytes, 6 tensors)

fc1.weight f4 [512, 24]
00000000: b284 943c 32ab 30bd 48c2 70bc ae9f 05be
00000010: 5564 4b3d ac6c 92bd 9b9e 2fbd ee11 aabd
00000020: fe81 e73c 7582 70bd 3449 74bd f24b b9bd
00000030: 7905 05bd 1208 cabc 66ed 0ebd eef0 e8bd
00000040: 5267 533d 54d2 a1bd 6a36 e2bc 1e6c 92bd
00000050: 8912 82bc aa49 453c 6a3b 0fbd bff9 6cbd
00000060: b6df 25bc 637a a23d c71b 76bc 6ff7 783d
00000070: daf3 3e3e 6a18 443d 2f65 1d3d 9d73 ce3d
00000080: c011 be3c 047e cc3d 64f7 1cbc 198c ebbb
00000090: 05c6 103e e208 d23d d051 343c 492c f23c
000000a0: 0339 6abd 20da bb3c ba3b 57bd c4ed 0d3c
000000b0: 2d05 c53d fd22 d63d cce9 c23c 5172 bb3c
000000c0: 6f8e 4abc 5bc9 f53d 8db6 20bc 8584 48bd
000000d0: 8861 ab3c 63d1 93bd d6d2 9abc 016a 8cbc
000000e0: d104 d6bb 4a69 b53d 250c a63b d2d7 2bbd
000000f0: ce59 833d f0fa 63bd 7a40 053d 2116 61bc
00000100: 4561 233d 17a8 423c 4a08 5e3d 7cd0 fabd
00000110: e0d2 ab3d 1f75 88bd 3721 20bc 592b 23be
00000120: 486f f03c d995 7a3d c788 0abd f752 833b
00000130: ac1e 933d 9f43 d4bc 747e 07bc 5a12 85bb
00000140: 51eb 0c3d 433b c83d 278f f1bc 9cb6 5bbc
00000150: b11a ce3c c0d9 ffbb 385e 5c3c 5cc6 99bc
00000160: 93aa fb3b 48e1 b33d 6821 243b f511 e3bc
00000170: 2404 5c3d b050 88bc 0670 4abd 7d79 5ebd
00000180: a870 dc3c b860 1bbd 0c4c fabb 7c18 ce3c
00000190: 8c94 4e3b f870 523d 4a3a 7bbb 90f4 19bd
000001a0: 9c59 e53c 9a19 dfbd eae9 d63c a614 d9bc
000001b0: 82c3 d8bc 9b25 cb3d 7781 813c dbdd 10bd
000001c0: c1d8 0fbd 1ff3 d7bd 0d02 cfbc e108 4b3c
000001d0: de9a 05be c349 043e e518 a83c 81c4 dbbc
000001e0: 55db 063d dca6 3dbe 376d ab3b 500a 8bbd
000001f0: f53a a7bb 49c9 38bd 675f dabc c14b 97bb
00000200: 7d99 a03c e287 14be f09c d9ba 295b 94bc
00000210: c57b 6dbb 1d16 ad3d 7995 98bb 2f8d cbbc
00000220: 81c7 113a 39ff 47be 849d 5abc b939 1ebc
00000230: 34e5 e5bd af76 323e d07f 1cbc 9aed e7bc
00000240: 10d3 453d e0da 233d c1cb c1bc 8961 9dbd
00000250: d1ff 7f3d 2c60 2abd 6bc3 063c 576e acbd
00000260: e146 fbba 8e4d 4f3c 079a 213d 03c4 1a3c
00000270: 94e8 e03b aa6b fdbd fab8 b4bc f50f 7d3d
00000280: a060 8c3d e9f5 c43c 59a7 75bd d508 123d
00000290: 9de6 823c 6b58 7abe 94bf c1bc a2da abbc
000002a0: 91ad 3c3d 48a3 af3a 47de 1f3d 54f0 2bbe
000002b0: 283a ddbc f062 84bd 6f75 b8bc 9dc8 ddbd
000002c0: 6b80 603d 9ba8 3d3c c8f8 90bc d530 6fbd
000002d0: ee5e c8bc ab36 64bc a0d8 f6bc 00c0 353b
000002e0: 014a 7c3d 661f e5bc 8f9c bfbc 7396 833c
000002f0: 67e1 313e 01d1 583d 81f4 a9bc 4036 b03c
00000300: c476 0e3d f9ac 89bc 1134 24bd 9b55 b6bd
00000310: 3db2 0ebe f76f b8bd b2b2 583c f798 aebd
00000320: 0bd9 973d 1dd2 74bd f40b c4bc ebb0 c3bb
00000330: c583 50bd dec1 adbd dc83 cdba ab82 b5bb
00000340: fe58 6bbc 916f 9ebc 3daa 52bd 409d b4bd
00000350: 08f8 0b3d 5c56 10bd cc77 0dbd af02 a6bc
00000360: 8749 94bc 2182 cf3d 5978 3e3c e1d4 673d
00000370: 1e99 1e3d dbb4 0c3c 4393 8bbd 2732 8a3c
00000380: 2629 933a 8d59 e73d 79c5 943b 1b75 81bd
00000390: 6716 403d d34b 533b 24bc adbc 2a51 81bd
000003a0: 5eff 23bd 18eb f63d b980 8fbc 12f9 a5bc
000003b0: 605d d43d aa7b c73a 26d8 09bd e8e4 83bc
000003c0: 0820 febc 046f 0b3c f23a bd3c d360 243c
000003d0: c0a9 b4bd 7969 e5bd d3fc debb a8f4 563d
000003e0: 4271 8bbd b007 4f3d dc75 7e3c 275a 16bd
000003f0: 7aeb 613d 7279 dabd 8e0f 08bd 694f 3bbc
0.01812968 -0.043132015 -0.014694758 -0.13049194 0.04965623 -0.07149634 -0.042875867 -0.08304201
0.028260227 -0.058718164 -0.059640124 -0.090476885 -0.032475922 -0.024662051 -0.03489437 -0.11374079
0.051612206 -0.07901445 -0.027613837 -0.07149528 -0.015877979 0.012041489 -0.03496877 -0.057855364
-0.010124138 0.079335 -0.015021271 0.060782846 0.1864771 0.047874846 0.038426574 0.10080645
0.023201823 0.09984973 -0.009580467 -0.007188332 0.14138038 0.102556005 0.011005834 0.029562132
-0.057183277 0.022931159 -0.052547194 0.008662645 0.09620128 0.10455892 0.023793124 0.022881659
-0.01236306 0.12001296 -0.0098091485 -0.048954505 0.02092053 -0.07217672 -0.018899363 -0.01714039
-0.006531336 0.08857973 0.0050673657 -0.04195387 0.06413613 -0.055659235 0.032532193 -0.013738186
0.039887685 0.011880896 0.054207124 -0.122467965 0.083898306 -0.06662964 -0.009773544 -0.15934505
0.029349938 0.061178062 -0.033821847 0.004007693 0.071835846 -0.02591115 -0.008269895 -0.0040610256
0.034404103 0.09776928 -0.029487206 -0.013410237 0.025159212 -0.0078079402 0.013450198 -0.018771343
0.007680246 0.08783203 0.0025044326 -0.027718524 0.053714886 -0.016640037 -0.04942324 -0.05431508
0.026909187 -0.037934035 -0.00763846 0.02515816 0.0031521646 0.051377267 -0.0038334304 -0.03758675
0.02799683 -0.10893555 0.026234586 -0.026499104 -0.026460413 0.09919282 0.015808804 -0.035367828
-0.035118822 -0.105444185 -0.025269533 0.012392254 -0.13047358 0.12918763 0.020519683 -0.026827099
0.032924015 -0.18520683 0.0052315253 -0.06789076 -0.005103464 -0.045113835 -0.02665682 -0.004617185
0.019604439 -0.1450496 -0.0016602557 -0.018109875 -0.0036237102 0.084514834 -0.0046564904 -0.024847595
0.00055610394 -0.19530953 -0.013343219 -0.009657317 -0.11225358 0.17428087 -0.009551957 -0.02831154
0.048296988 0.040003657 -0.023656728 -0.07684619 0.062499825 -0.041595623 0.008225302 -0.08419483
-0.0019170904 0.012652768 0.039453533 0.009446147 0.006863663 -0.12374051 -0.02206086 0.061782796
0.06854367 0.02404304 -0.05997405 0.035652954 0.015979106 -0.24447791 -0.023650922 -0.020978276
0.046063963 0.0013400102 0.03903034 -0.16790897 -0.02700527 -0.06464183 -0.022516934 -0.108292796
0.05480997 0.011575843 -0.017696753 -0.05839618 -0.024459329 -0.0139290495 -0.030132592 0.002773285
0.061594013 -0.027969074 -0.023390083 0.01606295 0.1737114 0.052933697 -0.020746471 0.021510243
0.034781232 -0.016806113 -0.040088717 -0.08903047 -0.1393518 -0.090057306 0.013226198 -0.085252695
0.074144445 -0.059770692 -0.023931481 -0.005972018 -0.050906915 -0.08484243 -0.0015679556 -0.0055392585
-0.014364479 -0.019340308 -0.051431883 -0.088190556 0.034172088 -0.03523861 -0.034538075 -0.020264952
-0.018101467 0.10132242 0.011625373 0.0565995 0.038720243 0.008588041 -0.06815197 0.016869618
0.0011227473 0.11296377 0.004540142 -0.06321164 0.046896365 0.003224124 -0.021207877 -0.06314309
-0.04003846 0.12056559 -0.017517434 -0.020260368 0.10369372 0.001521935 -0.0336534 -0.016100362
-0.031021133 0.008510355 0.023099396 0.01003285 -0.0882144 -0.11201758 -0.0068050413 0.052479416
-0.068087116 0.05054444 0.01553103 -0.03670707 0.05515621 -0.10667695 -0.03321796 -0.011432507

fc1.bias f4 [512]
00000000: 7035 15be 8ea4 8a3d b220 30bd d695 0fbe
00000010: f0c5 6f3b 7638 163e ce0f 19be 689b 82bc
00000020: c0f0 133e 18eb 73be 63fc 2d3e 952b adbc
00000030: eb9a 1ebe cce5 9fbd deb0 20be 7e85 e33c
00000040: cc48 c13d 1c06 e43d eb87 9ebd c262 6e3d
00000050: 8372 3a3d 4820 613d dbaf c03d 22df f6bc
00000060: ab3a 30be 1b79 2ebd 62cc 1a3d e3e6 91bc
00000070: 1d53 40be e1f2 cc3c c601 2cbe 352a 44be
00000080: 2d71 b73d 8b7b 153e 1529 6fbe 4591 9f3d
00000090: 093b 00b9 7aed 7fbd b14c 92bd d5e8 da3d
000000a0: b498 11be 8eba 1c3e 31f1 cd3d 0200 90bd
000000b0: 1876 1ebe d19e 77be dfa4 29be 523b 09be
000000c0: 49f3 07be 816f 95bd 82f7 b43d ce86 333e
000000d0: f94a 12be 2975 1c3e f6bd 063d 5c23 d6bd
000000e0: 4d16 a73d 3e23 9ebd ba12 d93d e525 64be
000000f0: b67f 41be 726b 623c b86b 2a3e d1d9 1e3e
00000100: 225d cd3d 854b 573e 448b fd3d a3d8 333d
00000110: d7b3 173d a909 68bd 0acc debd 65c4 f4bd
00000120: 27d1 1dbe 6d00 213e 1c94 aebd 4d42 59bd
00000130: 61d4 fe3d 935a b93d bb4e 10be c82f 4e3e
00000140: be42 4f3e f186 703b 8ae9 11bb e4e1 56be
00000150: fd94 02be 4d2f 16be 22e4 dfbd cd0a 8cbd
00000160: fba0 2abe 29f7 d73d 6aec b9bd c16e 413e
00000170: 791f 3ebe 0c51 dc3d 4ba0 583d e36b 3d3c
00000180: b1ce c4bd a55f 6a3d 1d73 393e ad83 57be
00000190: 5c88 b93c 2c4d 3cbe d7bc e8bd f8ba 80be
000001a0: 1084 a8bd 1e4b 8e3d 2ee8 b13d 2be4 ef3d
000001b0: a69a 6ebc 8d23 36be cc4a ddbd 3f91 493e
000001c0: bf4b dcbc 9ad3 11be a11d 09be 16b6 ebbc
000001d0: 3eeb 2f3e dca0 a0bc ccef 3f3e f82d dc3d
000001e0: 105d 833d 39a0 ed3d 35e0 39be a3a1 7cbd
000001f0: 92b1 4dbd e77f e4bd d0a7 293d 831e 8dbc
00000200: 06e4 323e 31b2 f8bd 1a9a 623a 1af6 8b3d
00000210: 713c 573e 1d1e 653e e494 1cbe 9484 2fbe
00000220: 6958 1f3e cd23 4d3e ec83 48be fe30 37be
00000230: b7db 21bd 894c 00bd f124 9e3d bd3e a0bd
00000240: fa9b 0fbe 3640 41be 8d2d 21be cc9f 34be
00000250: 737c bfbd ec48 fabd 8e2c 09be 9391 b63d
00000260: 4856 d1bb 781f 403e 578e d53d 07f4 df3c
00000270: 019c 0a3d 92c4 833d 821c 143d e95d 52be
00000280: 1652 76bd 1f99 363e 2eab 96ba 9e56 9c3d
00000290: 2c57 113e 5c70 823e 38f6 d2bd c686 e7bd
000002a0: afe2 5fbc af3a cf3d 7434 533e b6c4 11bc
000002b0: 876f afbd 0cef 2c3e 6f7b ffbc b610 2a3e
000002c0: 3925 823d ff71 a43d aabc 08bd 186b 11be
000002d0: 7ed9 01bb a551 2c3e 87e6 78bc c0ab c33d
000002e0: b91a dbbd 8009 d9bd ef72 62bc 9e9e 33be
000002f0: 5188 fb3c 3ae4 c03d ae14 ba3d d643 fbbc
00000300: e826 033e bb4e eb3b 994f 55be ab5a ee3d
00000310: 82e8 b2bd b23e 1a3e 75d7 d3bc ddde fdbd
00000320: 3f19 f43d 7427 fbbb 5246 9f3d d5c3 29bd
00000330: 1cdc 05be 99e7 063e d7a3 4f3e a867 383e
00000340: e147 b1bd 73dc bbbd cd67 35be 2ce1 2dbe
00000350: 3cf4 6ebe b11d 9a3d 81a1 233e 5acc 1cbd
00000360: 6a56 8cbd 3d03 373e b0d6 d0bb 985d bcbd
00000370: e1c6 41be 265c fe3c fe3e 3f3d f1e3 0d3e
00000380: 6a99 c7bd 8414 4dbe b9a4 f0bd cf47 e63d
00000390: 7deb 403d d22c 1b3d b996 0a3e 7847 8e3d
000003a0: f8b7 56be b01e 293e fd2d 42be bce0 e93a
000003b0: e4c2 973d f394 1dbe 99db 9f3d 626a 983d
000003c0: f7d8 1b3d c5c1 2dbe 68eb 4f3e 4b6b 403e
000003d0: 771e 123d 199b bb3c 94cd 5dbd 1826 89bd
000003e0: d296 273e 0d61 063e 9ced e13c 5da6 823d
000003f0: 1109 d23d 2423 34be c545 a0bd eda8 70be
-0.14571166 0.067696676 -0.04299993 -0.14022002 0.0036586486 0.14669976 -0.14947435 -0.015943244
0.14447308 -0.2382015 0.16990809 -0.021138946 -0.15488784 -0.07807502 -0.1569247 0.027773615
0.09437713 0.11133978 -0.07740768 0.05819965 0.045519363 0.054962426 0.09408542 -0.030135695
-0.1720988 -0.042595964 0.03779257 -0.01781029 -0.18781705 0.025018157 -0.16797552 -0.19156726
0.089571334 0.14597909 -0.23355515 0.0779138 -0.00012229024 -0.062482335 -0.07143534 0.106889404
-0.14218408 0.1530554 0.10055769 -0.070312515 -0.15474737 -0.24181677 -0.165668 -0.13401535
-0.132764 -0.07296658 0.08836271 0.17531893 -0.14286412 0.15279068 0.032896005 -0.10455963
0.081585504 -0.07721566 0.10599275 -0.2228008 -0.18896374 0.013819562 0.16642654 0.15512778
0.10027529 0.21024902 0.123800784 0.043907773 0.037036743 -0.056649838 -0.10878761 -0.11951522
-0.15411817 0.15722819 -0.08524343 -0.053041745 0.12442852 0.09050479 -0.14092533 0.20135415
0.20240304 0.0036701525 -0.0022264444 -0.20984608 -0.12752147 -0.14666481 -0.10932185 -0.068379976
-0.16662972 0.10545189 -0.090782955 0.18889906 -0.18566693 0.10757646 0.052887242 0.011561367
-0.09609736 0.05722012 0.18110318 -0.21046324 0.022648029 -0.18388814 -0.11364143 -0.25142646
-0.08228314 0.06947921 0.08686863 0.117134415 -0.014563238 -0.17786999 -0.10805282 0.19684313
-0.026891587 -0.14240876 -0.13390209 -0.028773349 0.17179582 -0.019607954 0.18743819 0.10750955
0.06414235 0.11602826 -0.18151934 -0.061677586 -0.050218172 -0.11157208 0.041419804 -0.017226463
0.17469797 -0.12143362 0.0008644179 0.068340495 0.2101915 0.22374769 -0.15291172 -0.17140418
0.1556107 0.20033188 -0.19581574 -0.17889783 -0.039516177 -0.03132299 0.0772189 -0.078244664
-0.14024344 -0.18872151 -0.15740032 -0.17639083 -0.09349909 -0.1222094 -0.13395903 0.08914485
-0.0063884594 0.18762004 0.1042754 0.027338041 0.033840183 0.06433977 0.03616 -0.20543636
-0.060136877 0.17831849 -0.0011495107 0.076337084 0.1419341 0.25476348 -0.10300869 -0.11305003
-0.013664885 0.10118615 0.20625478 -0.008896997 -0.08566194 0.16888064 -0.031186787 0.16607937
0.06354756 0.080295555 -0.03338305 -0.1420101 -0.0019813473 0.1682802 -0.015191681 0.09554243
-0.10698456 -0.10597515 -0.013821348 -0.17540976 0.03070465 0.09418531 0.090859756 -0.030671995
0.1280781 0.0071810163 -0.20831145 0.11638387 -0.087357536 0.15062979 -0.025859574 -0.123960234
0.11918878 -0.0076646153 0.077770844 -0.041446526 -0.13072246 0.13174285 0.20277344 0.18008292
-0.08656288 -0.09172907 -0.17715378 -0.16980428 -0.23335356 0.075251944 0.15979578 -0.038280822
-0.0685242 0.17872329 -0.006373249 -0.09197539 -0.18923523 0.0310498 0.046690933 0.13856484
-0.09746058 -0.20027357 -0.11750168 0.11244165 0.04709958 0.03788454 0.13534059 0.06947225
-0.20968616 0.16515613 -0.18962856 0.0017843465 0.07410219 -0.15388851 0.07805557 0.07442166
0.03804871 -0.16968448 0.20304644 0.18790929 0.035673585 0.022901105 -0.054151133 -0.06696719
0.16366127 0.1312296 0.027579121 0.063793875 0.102556355 -0.1759153 -0.078258075 -0.2350194

fc2.weight f4 [384, 512]
00000000: 35c2 213d 6196 86bc 3693 923d 817e 0bbd
00000010: d807 433c e7c4 943d d2a0 dd3b 2b8b 1abd
00000020: 6caf 02bd 95f0 3abd a964 3ebd 635a b73d
00000030: f648 ccbc f822 ba3d 492e c3bb 1495 fc3c
00000040: c630 b9bd 5141 c0bd c3ad 633d f74b 10bd
00000050: dab6 10bd 4a23 91bd 86c1 11bc 8806 d8bd
00000060: 3788 b5bd 75c7 58bd 3aa6 2bbc cd34 21bd
00000070: 0193 29bc 5cd5 0cbd 890c af3d 5ee3 85bc
00000080: c60e acbd ded0 16bd 550b 863d 23cf bdbd
00000090: 1c13 1b3d efab 9fbd b656 1fbe 6e26 45bc
000000a0: 756d 38bd 13c7 383d dec1 8a3d b4f1 45bd
000000b0: 98d9 193d a8c6 ffbc 9c31 ed3d 511b 603d
000000c0: be30 b13d f24d 58bc 9492 2a3d 449f d3bd
000000d0: 7e9d 23bd 07fc 64bd b244 b5ba 249d 9bbd
000000e0: cf4c a8bd 1a1a 83bd 6c88 c3bc b59c 3e3d
000000f0: 0cab b93b 725b 4ebd 47af a33c fc9f e8bc
00000100: 398a b2bc c798 d2bd 4726 af3c 6269 163d
00000110: dd1d 163d 7a03 93bc 13ab ccbd 17e5 0c3c
00000120: 056a 903c f442 0f3d f429 7abc e325 adbc
00000130: 27c7 6b3d 1596 54ba 1e30 8e3b b5e1 833c
00000140: 3d7a 4b3d 005e 8b3c 891a 523d ec22 533c
00000150: 8a32 c4bd 3d37 983d c9f4 433c 2dfd 083c
00000160: 93c3 993b 017b c0bd 17c3 99bd f56e d63c
00000170: 6224 4c3d f5ae c3bd 4134 c53b a603 68bc
00000180: 803e dbbc da6e 4b3c 731d 483d 0dc8 abbc
00000190: fede e4bd 653a dabc f7a1 913c 2810 a4bc
000001a0: 6390 05be 91ea 85bd 399e ecbd af2a b6bc
000001b0: 1696 c2bd 6a86 623d e0f0 80bc 8211 02bc
000001c0: 03e8 b839 3f34 a9bd be83 3f3c 8167 173d
000001d0: 3c50 25bc 2f1f 333c b57f 38bd ba7d f9bc
000001e0: 1873 b63c 3c30 41bd 940f 8bbc 9ec6 83bd
000001f0: 4564 bfbc 054f 42bd 9da9 373d 8259 e9bc
00000200: 11fa dabc f6a1 a2bc 396c 1a3c 83af 663c
00000210: fc2e 10bd b30b 91bb 8799 9c3d c95d afbc
00000220: 0726 07be 46c0 b6bb cd80 84bc 547a dabc
00000230: bf4e af3d ea96 433d 87a2 3fbd 6a30 b53c
00000240: 20ad 2fbc 9358 dabd 9231 84bd a086 10bd
00000250: 1d6e 883c 4afd 9cbc e639 1cbe 9ebb 1f3d
00000260: e004 1fbd d040 0cbd 60dc 073d 69d0 7dbd
00000270: 76df 863c 74a9 153c 932f 53bd e94f cbbc
00000280: f595 973d dba3 16bd a6f7 c6bc 13c9 363d
00000290: c9fa 943d 4457 11bd 2d87 953b 6ee0 86bd
000002a0: af51 0f3c 81d6 ebbd bc28 84bd 3d93 80ba
000002b0: 2d70 c6bd 3369 02bd dfb1 ad3c bb67 f1bc
000002c0: 896e b8bc 4460 db3d 6662 9abc e3ee 4d3d
000002d0: 7434 c43c 5872 1dbd ad5f 4d3c 2b90 5a3c
000002e0: 3685 513b dede b83c fe65 aabd e341 8bbd
000002f0: 6025 88bd c17c dabc 2c01 12be 1e69 b83c
00000300: 2232 93bd 1658 39bd 8f81 55bd 15d3 283d
00000310: 7030 b8bd dd61 edbb 0155 483d e539 8e3b
00000320: 582a 323d fa90 29bd 267a c2bd 7e22 b83c
00000330: 29d0 143d c5db 40bd bc6b 2fbd 9c60 ac3c
00000340: 25a6 453d 1e3d febc dbf4 55bd 41d1 f2bd
00000350: a0a3 893d 8063 b13c 7866 cabc 0701 71bd
00000360: 9d19 77bc 26ee 59bd cb08 82bc d75f 6c3d
00000370: de1d e13c 3a88 62bb 904a 18bd fac2 cfbd
00000380: f703 f2bd 3781 1ebd 9b49 cfbd 89fb afbd
00000390: e8e6 62bd 9b83 cbbd 2a41 6f3c 1d21 2bbd
000003a0: cdcc 26bd 5566 513d 21ce 093d 78a7 ddbc
000003b0: 019d fdbd 0ddc 41bd 9b41 a93c 3ea7 25bd
000003c0: 034d ebbc 3f8b 5dbc 7904 fbbc 1cf4 cfbc
000003d0: 3714 d7bd 23c7 183b 9ce1 763b 4cfd 5b3d
000003e0: 604c cc3b 5a88 0abc 1bd5 963c aee3 1cbd
000003f0: 4fb4 8cbd e243 603d d447 c93d fa35 fbbc
0.03949185 -0.016429128 0.071569845 -0.03405619 0.011903726 0.07264119 0.006763556 -0.037730377
-0.031905577 -0.045639593 -0.046482716 0.08952787 -0.024937134 0.09088701 -0.0059564454 0.030832805
-0.09042506 -0.09387458 0.055585634 -0.035228696 -0.03533063 -0.07086809 -0.008896237 -0.10548121
-0.088638715 -0.052924592 -0.010476643 -0.039356995 -0.01034999 -0.034383163 0.08547313 -0.016343769
-0.08401255 -0.036820285 0.0654513 -0.09268024 0.03786002 -0.077964656 -0.15560421 -0.012033088
-0.04502626 0.045111727 0.067752585 -0.04832621 0.03756103 -0.031222656 0.11581728 0.05471355
0.08651875 -0.013202177 0.041643694 -0.10333112 -0.039945118 -0.055904415 -0.0013829677 -0.075983316
-0.08217775 -0.06401463 -0.023868762 0.046536166 0.0056661423 -0.050380178 0.01998104 -0.028396599
-0.021794425 -0.10283046 0.021380557 0.036721595 0.036649574 -0.017945994 -0.09993567 0.008599541
0.017628679 0.03497596 -0.0152687915 -0.02113623 0.057562973 -0.0008109522 0.004339232 0.016098836
0.049677122 0.017012596 0.051294837 0.012886744 -0.09579952 0.07432411 0.011960217 0.008361143
0.0046925037 -0.09398461 -0.075079136 0.026175955 0.049839385 -0.09554855 0.006018192 -0.014161026
-0.0267632 0.012416566 0.04885621 -0.020969415 -0.11175345 -0.026639173 0.017777426 -0.020027235
-0.1304336 -0.065388806 -0.11553616 -0.02223715 -0.09501283 0.05530397 -0.015739858 -0.0079387445
0.00035268077 -0.08261918 0.011689125 0.036963943 -0.01008993 0.010932728 -0.045043666 -0.030455459
0.022271678 -0.04716514 -0.016975202 -0.064343676 -0.023363242 -0.04743864 0.04483949 -0.028485063
-0.02673057 -0.01985262 0.009425216 0.014079931 -0.035201058 -0.0044264435 0.076464705 -0.021407025
-0.131981 -0.00557712 -0.016174698 -0.026669659 0.085599415 0.047751345 -0.046785858 0.022117812
-0.010722429 -0.106614254 -0.06454767 -0.03528464 0.016654069 -0.019163746 -0.15256462 0.038997285
-0.03882301 -0.034241498 0.03316915 -0.061966334 0.016463976 0.009134639 -0.051559042 -0.024818378
0.07401649 -0.03677736 -0.02428801 0.044625353 0.07274396 -0.035483614 0.0045632333 -0.06585775
0.008747502 -0.11515523 -0.06453082 -0.0009809505 -0.096893646 -0.031838607 0.02120298 -0.029468408
-0.022513645 0.107117206 -0.018845748 0.05027665 0.023950793 -0.038439125 0.012535018 0.013340036
0.003197027 0.022567209 -0.08320235 -0.06799676 -0.06647754 -0.026670815 -0.1425826 0.022511061
-0.071872965 -0.04525002 -0.05212551 0.04121693 -0.08993614 -0.007244332 0.04890919 0.0043403977
0.043497413 -0.041398026 -0.09495954 0.022477385 0.03633133 -0.04708459 -0.042827353 0.02104216
0.04825415 -0.031035002 -0.052235465 -0.11856318 0.06720662 0.02165389 -0.024707064 -0.05883887
-0.01508179 -0.05320563 -0.015873333 0.057708587 0.027480062 -0.003456606 -0.037180483 -0.10144611
-0.118171625 -0.038697448 -0.10121461 -0.085928984 -0.05539599 -0.09937211 0.014602939 -0.041779626
-0.040722657 0.051122982 0.033643845 -0.027057394 -0.12383462 -0.047328997 0.020661166 -0.040442698
-0.028723245 -0.013521968 -0.030641781 -0.025384955 -0.105019026 0.0023312054 0.0037671095 0.05370836
0.0062346905 -0.00845536 0.018412163 -0.03830307 -0.06870329 0.054752238 0.09828153 -0.030665386

fc2.bias f4 [384]
00000000: 3a45 743d 4e2b 68bc 8f1f 59bc e36c febb
00000010: 0d4b 19bd b9f2 85bd 9506 6cbd 9a35 753c
00000020: 3b6c 37bd f2a5 b3bd 5acd 333c 055c aa3c
00000030: 80e8 6d3c a4d3 bcbc f3a3 a2bd 4144 c7bb
00000040: 6d2c e23c 02c4 a43b b93c 723c cd59 a13d
00000050: 4441 453a fbbc 9d3c 5333 22bd d586 0dbd
00000060: 3613 d23c 209f 953d 3a7c 143b a3bd 48bd
00000070: 1258 41bd 7aca 593c 68d6 443a 7179 703d
00000080: cac4 54bd f51e c8bb 97b8 453d 806f 79bb
00000090: f1b1 61bc e5e0 1bbd d97e 5bbd 08b8 cdbd
000000a0: 04bd ae3c b69b 8f3c 6c43 40bb acd8 3b3c
000000b0: 72c1 86bc 7e0c 79bd 8116 1cbd 6907 b03c
000000c0: 51bf 14bd c6a8 c6bd 9cda 003c 29fd 13bd
000000d0: 84cd 9a3c 4c67 f53c 3cac 9238 909e 94bc
000000e0: 29c7 363d c8e5 a83d e7f6 573c b4ff a4bb
000000f0: 64db c53c 6496 33bc 94ec bbbd c9b0 4ebc
00000100: 6c82 cdbc 75ad 79bd f2de 6dbc 3db0 b53c
00000110: 7119 093c 7b96 263d 5b26 c43a 053a 433c
00000120: 089b b13c 521c e5bb b3b3 113d 6cd1 5abc
00000130: cf21 213d e5b5 d63c 905a 9d3d 8fa5 c3bc
00000140: 9b66 973c d322 9fbd 3103 733d babe d3bd
00000150: 635b a5bc aac9 c9bc b72f b0bd b889 56bd
00000160: 9385 a03c fc60 4abc 7063 ab3c f784 31bd
00000170: 0d07 623d b13d c0bd fb20 31bd 08ec 71bc
00000180: e282 edbc 459b 66bc 4773 4dbd cda6 7d3b
00000190: 3143 ff3a 8d5b 6a3b 47a3 b639 4d57 2abd
000001a0: 9b1a 38bc b1d8 273d 7957 fcbb 1605 823c
000001b0: 0e16 9c3b 867d 1bbd da73 91bc e7d9 ba3d
000001c0: 132b efbd 482e 53bc 2241 893c 36cb abbd
000001d0: 5b61 43bc dd5b 17ba dfb1 33bd 54d7 73bd
000001e0: fe29 253d 9486 1b3d abd1 19bd aa70 583c
000001f0: 05e1 223d ac60 693d 2f1b 10bd 8928 b83c
00000200: eaac dfbd 8a9f cdbc 3ef2 e03c f2b0 1a3c
00000210: 17e0 30bd 1737 f43b 7fcf 86bd 8e87 9bbc
00000220: d40a 253c dae3 cebd 7dd2 3dbd c911 513c
00000230: 4f9c a1bb 6e9d e33b 010a 0f3b d870 1ebb
00000240: a3a3 513d dadd 843c 9b6c 3dbd 4e6f 83bd
00000250: 4f49 923b 81ae a8bd 48c5 a9bc a0a3 12bd
00000260: 0f2a 44bd ff23 8dbd e26c d93b 4dbc abbc
00000270: 8a0d fe3c c7d2 8e3c 5954 bc3c 7955 083d
00000280: 4166 2c3a d504 1ebd 875d f9bc ad13 f4bc
00000290: d8f1 843c 5aea 25bb afb7 08bd d93f 573d
000002a0: 69a6 b5bc 783e 91bc 95bf 35bd ba59 a13c
000002b0: fc76 0bbd 8d6c 64bd 3fa9 b43c 3fa6 debc
000002c0: 6e98 423c 5e85 efbc 3466 a1bc 2d7a cb3c
000002d0: c70f a73b b58b 0ebd c33c 793d 1dec 43bd
000002e0: 8c89 88bd 2f28 2ebd 475d 973c e509 8c3d
000002f0: 8a75 1ebd 9d02 643c 5ecd 29bc cbfb 98bd
00000300: fe8e 4339 5d39 f93b d6d8 36bd 4d13 f13c
00000310: 239b 1b3c 5a7e 03bd ab88 ea3c 518b 1dbd
00000320: c783 4f3d 3275 1ebd 9365 153d 6ebc 7abd
00000330: b83c 50bd 62a7 173d 435e 823b 922d e13c
00000340: ff77 703c bdee e6bd 1998 8d3c b9c0 11bd
00000350: a2ae f8bc a3dc 28bd bdb6 cbbd 72f0 033d
00000360: 07dd 90bd 8d59 0dbd aaae 8a3b d117 503d
00000370: da2c bcbd b2d0 e93c bcbe 413b 5872 903d
00000380: a782 bf3c 9195 253d c95e 543b fdae 1ebd
00000390: 69b9 a6bc ef11 93bb deb7 97bd dc54 d2bc
000003a0: 69a8 18bd e06d 223d ae1b 033c e474 643d
000003b0: b96d 9fbc bd9c 6ebc 8dd8 11bc 6e95 80bc
000003c0: bdc0 c4bc 6f1f 1f3d 9b73 df3c 2a1e 32bd
000003d0: e258 08bc 9297 02bd 6a54 b5bc dab6 fdbc
000003e0: a9d2 863d ac2f 97bd 8a57 2cbd 891b 48bd
000003f0: 55af 52bb df95 053d b213 3c3d 4bd7 ba3b
0.059636332 -0.014170481 -0.013252153 -0.007764445 -0.03742509 -0.06540436 -0.057623465 0.014966393
-0.04478095 -0.08771886 0.010974253 0.020795831 0.014520764 -0.023050137 -0.07941427 -0.0060811345
0.027609074 0.0050282488 0.014784985 0.07878456 0.0007524679 0.019255152 -0.039599728 -0.034552414
0.025643926 0.07305741 0.0022657053 -0.049008977 -0.04720313 0.013292903 0.00075087557 0.058709566
-0.051945485 -0.006107206 0.04827174 -0.0038060844 -0.013775335 -0.038056273 -0.05358777 -0.10044867
0.021330364 0.017530303 -0.0029337062 0.011465233 -0.016449664 -0.06080293 -0.0381074 0.021487908
-0.036315266 -0.0970016 0.007864621 -0.036130104 0.018896826 0.029956482 6.993904e-05 -0.018142015
0.044623528 0.08246952 0.013181425 -0.005035365 0.024152465 -0.010961149 -0.09175983 -0.012615391
-0.025086604 -0.060956437 -0.014518486 0.022178764 0.008367882 0.040670853 0.0014965044 0.011915688
0.02168037 -0.0069919014 0.035571765 -0.013355594 0.039338883 0.026209781 0.07683289 -0.023882655
0.018481543 -0.07770314 0.059329215 -0.103391126 -0.020185178 -0.024632294 -0.08602851 -0.052377433
0.019594943 -0.012352224 0.020921439 -0.043339696 0.055182505 -0.09386767 -0.043244343 -0.014765747
-0.028993074 -0.014075105 -0.050158765 0.0038704157 0.0019474981 0.0035760135 0.00034835396 -0.041587163
-0.011236812 0.040978137 -0.0077008572 0.015871566 0.0047633713 -0.037961505 -0.017755438 0.09123593
-0.11678138 -0.012889452 0.01675469 -0.08388369 -0.011925067 -0.00057738816 -0.043870803 -0.059531525
0.04032325 0.03797014 -0.03755347 0.013210455 0.039765377 0.05697696 -0.035182174 0.022480266
-0.109216526 -0.025100488 0.02745926 0.009441601 -0.04318246 0.0074528563 -0.065825455 -0.018985536
0.010073382 -0.10102053 -0.046343315 0.012760588 -0.0049319635 0.0069462573 0.002182603 -0.0024176147
0.051181447 0.016219068 -0.046246152 -0.06417714 0.0044643055 -0.08236409 -0.020723954 -0.035800576
-0.047891673 -0.06891631 0.0066352943 -0.020963812 0.031012315 0.01743449 0.022989439 0.033284638
0.00065765163 -0.038578827 -0.030440105 -0.029794538 0.016228601 -0.0025316686 -0.0333783 0.052551124
-0.022174077 -0.017729983 -0.04437216 0.019696105 -0.03404902 -0.055767585 0.02205336 -0.027178882
0.011877162 -0.0292384 -0.019702055 0.024838531 0.0050983164 -0.034801204 0.060848963 -0.047832597
-0.0666686 -0.04251879 0.018477095 0.06837825 -0.038686313 0.013916639 -0.010363905 -0.07469901
0.00018649918 0.007605715 -0.044640385 0.029428149 0.009497437 -0.03210292 0.028629621 -0.03846294
0.050662782 -0.038685985 0.03647382 -0.061214857 -0.050839156 0.037024863 0.003978522 0.02748755
0.014677047 -0.112760045 0.01728444 -0.035584185 -0.030356709 -0.04122604 -0.09946964 0.03221173
-0.070734076 -0.03450923 0.0042322474 0.050803963 -0.09188242 0.028541896 0.002956315 0.07053059
0.02337773 0.04042584 0.003240513 -0.0387411 -0.020352082 -0.004488222 -0.07408117 -0.02567523
-0.037269983 0.039655566 0.008002205 0.055775538 -0.0194615 -0.0145637365 -0.008901727 -0.015696254
-0.024017686 0.038848337 0.027276805 -0.043485798 -0.008321973 -0.03188283 -0.022134978 -0.03097098
0.06583149 -0.073821396 -0.04207567 -0.048854385 -0.0032147963 0.03261363 0.04591722 0.0057019345

fc3.weight f4 [2, 384]
00000000: 786b 65bc ab3c bb3c a95d 773d 169f c93c
00000010: 5958 073d 5a5c 46bb 75f6 22be c435 053d
00000020: 03eb 20be 54fe f8bd 8a4f ae3d c1f5 25be
00000030: 1561 2ebe 6644 a3bd c6a5 20bc e417 e53c
00000040: cf1d a0bd b961 b0bb c202 94bd 8eb3 f83c
00000050: 533e 94bc 8e4f 94bc e04d bc3c 9423 94bc
00000060: ca53 d0bc 9155 d4bc 87a5 1f3e 2a8f 55bd
00000070: a674 fe3b 7e1b 0ebd 54fe 503d 6616 02be
00000080: 72c4 a03d 507e 0abe d78a 023d 5338 b93d
00000090: e727 3cbc dbce 00be c04f 92bd c9a9 ecbd
000000a0: 29f3 c93a 2f49 983b 096b 363d 0281 50bd
000000b0: 87a9 36bb f577 fdbc 3b7c c8ba e093 5bbd
000000c0: cde4 8cbb b139 94bd 593e 15be 5efe 413b
000000d0: 38f1 513c 764d 2fbd 10d9 e43c 34b7 253e
000000e0: 85df 76be f60d 03bc 1efd 7dbd 4f0c 0ebc
000000f0: 802d 3238 677a d23d 786b bbbd 78b1 a5bd
00000100: d598 403e 57a6 0ebe bf2e c8bc 3840 bbba
00000110: c123 eebb b8b5 f43d c86a 8bbc c173 0d3c
00000120: 7702 6fba f78b d2bb f8d6 073e 5262 0b3e
00000130: 9918 20be 85d3 2cbc e364 babc 173a 77bc
00000140: 97ff 8bbc 6400 bfbd 0e7d 5dbc e4dd 99bd
00000150: 80b3 ac3d 3393 21bd dc1b ccbd f98c cd3d
00000160: e46e 57be ce96 203e 66e8 923d 9b7a a0bc
00000170: 4692 b9bc b190 1ebd d772 883b b2c2 4abc
00000180: bd8b ccbd 0b58 0cbc 05cb 2bbc ebb3 a73d
00000190: 49af 9ebc 8e66 cbbb 1864 1a3c 9840 703e
000001a0: 5aa4 0ebe 4998 92bc 438d 413d 5b70 52be
000001b0: a7a1 ccbd b0b3 b0bb 89ab d63c 6ed3 b0bc
000001c0: e71b 49bd e404 e6bd 3977 263d 26ae debd
000001d0: fe9e bebd 6230 b3bd aea1 2abd 5769 8bba
000001e0: afa3 553d a609 2c3d 2a8b 163d 2515 fd3b
000001f0: e4a5 57bb 75e4 0dbc 1881 ad3d 1e66 e13d
00000200: 25a0 b0bd 676f 05be b5aa c7bc c40a 2dbb
00000210: 7741 f2bd 32d4 493d 2471 e2bd 842f a1ba
00000220: e98e 6b3d 0f97 7abd e07a 9b3d 69bc 533d
00000230: ebf5 51bc 0ad6 b03b d1ef 34be 0013 cfbb
00000240: c471 a8bc fe02 c7bd 2ff2 3ebc 00bb eabd
00000250: de77 78bc 8134 ebbd b5c4 a6bd 890f b8bc
00000260: 28c7 863c d89d 1e3d bf0e 353b c676 f5bd
00000270: 886b 09be 008c 773e 4fee 6d3d fdc9 55be
00000280: 1219 04be 4197 27be a1d7 12bd 15f3 afbd
00000290: da64 4bbd b397 743c 17af 19be 866f 1b3d
000002a0: 5c42 133d b69a b7bd 8c71 2d3d 1e8c 20bd
000002b0: 2088 adbd 9b16 ba3d ae49 93bc e549 2bbd
000002c0: 915d 3ebd 016f b7bd fefe 11bc 1e35 53bc
000002d0: db30 293e 4ea5 9dbc 3156 e7bc b875 70bc
000002e0: ae13 d23d c470 d4bd b95c b63c e77c 96bc
000002f0: aac1 663e 1980 15ba 9c2b 62bb 2a62 01be
00000300: 8824 18be a398 f9bb 880e babd 6143 dd3c
00000310: 3348 47bb 7adb e3bb 2969 9e3b 85ab bf3d
00000320: 6bd4 e0bd d770 bfbd acde 80bc 0b90 213d
00000330: 2d67 42bb 79db bcbc e48f 74bc a12a 73bd
00000340: 8281 a4bc 2818 31bd 64f4 1b3e a74e 98bc
00000350: 214c fb3a 062b 6f3d f82f 2ebe b3ba 7a3d
00000360: bfd7 d2bd 8e53 24bb 69ad c7bd 5890 59be
00000370: 7648 4dbe a04b 27bb b035 9a3c b4e9 413e
00000380: 7f07 08bd df6b 87bc 8117 6f3c 8c83 41bb
00000390: daa7 2fbe 4758 683d d992 05be 6f02 da3d
000003a0: e91d c2bb e046 af3b 47c9 33be 1907 2f3d
000003b0: abd9 943e c00d 7ebb 2228 6cbd a89c 293a
000003c0: 560c b6bd 7c06 34bb e7fb 5dbc 73b3 83bd
000003d0: b7ea 913c 05d3 52bc 1d56 ddbc 0867 88bc
000003e0: e36f af3c dcdd 4bbc d5c1 923d 5e9b 003c
000003f0: 320b c13d be23 413c 921f 2f3e e558 2cbd
-0.014002673 0.022856077 0.060392056 0.02461199 0.03304324 -0.0030267448 -0.15914328 0.032521978
-0.1571465 -0.12157884 0.085112646 -0.16207029 -0.17029221 -0.0797203 -0.0098051485 0.027965494
-0.078181855 -0.005382743 -0.072270885 0.030359056 -0.018096125 -0.01810434 0.022986352 -0.018083371
-0.025430579 -0.025919707 0.15590487 -0.052138485 0.0077653704 -0.034694187 0.051023796 -0.12703857
0.07849969 -0.13524747 0.03187069 0.09043946 -0.011484123 -0.12578909 -0.07144117 -0.115558214
0.001540755 0.004647396 0.04453567 -0.05090428 -0.0027872042 -0.030940989 -0.0015295813 -0.05360782
-0.004299736 -0.07237566 -0.14574565 0.0029601078 0.012813859 -0.042798482 0.027935535 0.16183168
-0.24108703 -0.007998934 -0.06200897 -0.008669927 4.2480882e-05 0.10277253 -0.091513574 -0.0809049
0.18808301 -0.13930641 -0.024436353 -0.0014286106 -0.007267446 0.119487226 -0.01701869 0.008633555
-0.0009117494 -0.0064253765 0.13265598 0.13611725 -0.15634383 -0.010548477 -0.022753185 -0.015089533
-0.017089648 -0.093262464 -0.013518585 -0.075130254 0.084326744 -0.03944702 -0.09966251 0.10036654
-0.21038395 0.15682527 0.07173233 -0.019589713 -0.022652756 -0.038712207 0.0041640806 -0.012375521
-0.099875905 -0.008565913 -0.010485415 0.081886135 -0.019370692 -0.006207294 0.009423278 0.2346214
-0.13929883 -0.01789488 0.04725386 -0.20550673 -0.0999177 -0.005392514 0.026204841 -0.021585193
-0.049098875 -0.112314016 0.040641043 -0.1087306 -0.09307669 -0.08749463 -0.041658096 -0.0010636252
0.052158054 0.04200139 0.03675381 0.007723468 -0.0032905275 -0.008660425 0.08471888 0.110058054
-0.08624295 -0.13030778 -0.024373392 -0.0026404122 -0.11828893 0.04927463 -0.11056736 -0.0012297486
0.057509337 -0.061179217 0.07591796 0.051693354 -0.012814979 0.005396609 -0.17669608 -0.0063194036
-0.02056206 -0.097173676 -0.011654421 -0.11461449 -0.015165297 -0.11484624 -0.08142988 -0.022468345
0.016452387 0.03872475 0.0027627198 -0.11985545 -0.13419926 0.241745 0.058088597 -0.20877834
-0.12900189 -0.16366293 -0.03585017 -0.08591286 -0.049656726 0.014928746 -0.15008198 0.037948154
0.035951957 -0.08965056 0.042344615 -0.039196126 -0.084732294 0.09086343 -0.01797947 -0.04181852
-0.04647595 -0.08956719 -0.0089108925 -0.012891082 0.16522543 -0.019243862 -0.028239341 -0.014676504
0.1025766 -0.10373071 0.02226101 -0.018370105 0.22534814 -0.0005702987 -0.0034510856 -0.12635103
-0.14857686 -0.0076170727 -0.09084803 0.027009668 -0.0030408024 -0.006953654 0.0048343134 0.09358887
-0.109780155 -0.09347694 -0.015731178 0.03944401 -0.0029663548 -0.023053871 -0.014926884 -0.059366826
-0.020081285 -0.043235928 0.15229946 -0.018592192 0.0019172468 0.05839064 -0.17010486 0.061213206
-0.102950566 -0.0025074217 -0.09749872 -0.21246469 -0.20047173 -0.0025527254 0.018824428 0.18936807
-0.033210274 -0.01653093 0.014593006 -0.002952787 -0.17153874 0.056724813 -0.13044299 0.106449954
-0.0059239757 0.005349025 -0.1755725 0.04273138 0.29072317 -0.003876552 -0.05765546 0.0006470182
-0.08889072 -0.0027469685 -0.013548828 -0.064307116 0.017812116 -0.012867694 -0.027018601 -0.016650692
0.021415656 -0.012443032 0.07165877 0.007849542 0.094259635 0.011788307 0.17101887 -0.042076964

fc3.bias f4 [2]
00000000: a6d5 853c 9817 3abd
0.016337227 -0.045432657
