critic.pth (torch_old, 844801 bytes, 5 tensors)

fc1.weight f4 [512, 24]
0	0xbd3dcb6a	-0.04633657
1	0x3dc0eaf6	0.09419815
2	0xbcbb5448	-0.022867337
3	0xbcad7265	-0.021172712
4	0x3d94da77	0.07268231
5	0xbcff5ec7	-0.031173123
6	0x3cbb1516	0.022837203
7	0xbc22fd42	-0.009948077
8	0x3c1164dc	0.008874144
9	0x3dddea3a	0.10835691
10	0xbc9e06e6	-0.019290399
11	0xbca89b19	-0.020581769
12	0x3cf35890	0.029705316
13	0x3d117593	0.03551252
14	0x3c49968f	0.012303962
15	0x3c475e1e	0.012168435
16	0xbbb76cbe	-0.00559768
17	0x3d6d7bf9	0.057979558
18	0x3c184d2e	0.009295745
19	0xbd3c89be	-0.0460298
20	0x3cb3150a	0.021860618
21	0x3e600b32	0.2187927
22	0xbcb84bae	-0.022497024
23	0x3b1ed754	0.0024237232
24	0x3d4fc427	0.050724175
25	0x3cc699fe	0.024243351
26	0x3c726af8	0.014796011
27	0xbd2112a3	-0.039324414
28	0xbdad1757	-0.08451717
29	0xbd3cb5dd	-0.046071876
30	0xbc9594e6	-0.018259477
31	0x3d42fedf	0.047606345
32	0x3d243cb5	0.040096957
33	0xbc8bd94f	-0.017071394
34	0x3c19d218	0.009388469
35	0xbbf8f631	-0.0075977077
36	0xbdbd588b	-0.09245404
37	0x3c124e2f	0.008929773
38	0xbbcd5597	-0.0062663066
39	0xbab12446	-0.0013514839
40	0x3ccc0594	0.024905004
41	0xbd759b37	-0.059962478
42	0x3c80564f	0.015666155
43	0x3cbfaf14	0.023398913
44	0x3d0719a2	0.03298343
45	0x3dc48e1e	0.09597419
46	0x3b494bb6	0.0030715293
47	0xbd302c6c	-0.043011114
48	0x3d923349	0.07138688
49	0x3dac2f46	0.08407454
50	0xbce60acb	-0.028081318
51	0xbd2aafb5	-0.041671474
52	0x3d05a258	0.032625526
53	0xbde5b158	-0.11215466
54	0xbcc7de2f	-0.024397938
55	0xbc3e88d5	-0.011629303
56	0xbc077915	-0.008268614
57	0x3c7580db	0.014984335
58	0xbcd65ef2	-0.02616832
59	0xbd56054c	-0.052251145
60	0x3c994fb6	0.018714767
61	0xbe0955ce	-0.13411638
62	0xbc875ce8	-0.016523793
63	0xbd0a91f0	-0.033830583
64	0x3d91cb96	0.07118909
65	0x3d29017f	0.041261192
66	0xbcd94171	-0.026520463
67	0xbdc26927	-0.094927125
68	0x3c8000e5	0.015625427
69	0xbe6149c3	-0.22000794
70	0x3ccdee23	0.025137966
71	0xbcd1366f	-0.025538651
72	0x3cd965d5	0.026537815
73	0x3c9c0414	0.019044913
74	0x3d009b9e	0.031398408
75	0xbabc04eb	-0.0014344727
76	0x3aee2f5b	0.0018172072
77	0xbc5c57c0	-0.013448656
78	0xbc43a77b	-0.011941786
79	0xbcab7489	-0.020929592
80	0x3d9903f8	0.0747146
81	0x3aa1899d	0.0012324337
82	0xbb18393b	-0.0023227471
83	0x3b56d3e3	0.0032780103
84	0xbb97eb91	-0.004636236
85	0x3bc2bd7a	0.0059429975
86	0xbd3ca22b	-0.046053093
87	0xbd05da37	-0.03267881
88	0x3dafa875	0.085770525
89	0x3c1aa007	0.009437568
90	0x3bcf79af	0.0063316445
91	0x3c977414	0.018487968
92	0xbd0f59e2	-0.03499783
93	0xbd76fa0a	-0.06029705
94	0x3cb41338	0.02198182
95	0xbc6750f2	-0.01411842
96	0x3d5a04e1	0.05322731
97	0xbd4525be	-0.048131697
98	0x3bc938cc	0.006140804
99	0x3cddf68d	0.027095104
100	0x3d860a3f	0.06544923
101	0x3de01fa8	0.10943538
102	0x3c07acac	0.008280914
103	0xbb457eef	-0.0030135473
104	0x3d9b6c80	0.07589054
105	0xbc11228e	-0.008858336
106	0x3befed24	0.0073219705
107	0x3c6f1551	0.014592485
108	0x3d34dc17	0.044155207
109	0x3c7a01a1	0.015259177
110	0x3c788279	0.015167826
111	0x3cd5b5f3	0.026087737
112	0x3c9f5e66	0.019454192
113	0xbb564c11	-0.0032699148
114	0xbb64be20	-0.0034903362
115	0xbce6d3d9	-0.028177189
116	0x3ced6a35	0.028981308
117	0xbe5800ae	-0.2109401
118	0xbc42e428	-0.011895217
119	0x3b1b8319	0.0023729263
120	0xbb0e6e5a	-0.0021733255
121	0xbd8e715f	-0.069552176
122	0xbd048ece	-0.03236275
123	0x3d1f8624	0.038946286
124	0xbdb186f4	-0.086683184
125	0x3d039a5a	0.032129623
126	0x3cfd6473	0.030931687
127	0x3cabcb2b	0.020970901
128	0xbcf61de0	-0.030043542
129	0xbd4e1aca	-0.050318517
130	0x3ce4d833	0.027935123
131	0x3baa2dd2	0.0051934505
132	0xbd677719	-0.056510065
133	0x3d2c457e	0.04205846
134	0xbc6824ea	-0.014168957
135	0x3880ab80	6.13546e-05
136	0x3d36c3f4	0.04462047
137	0xbd0bbaf1	-0.034113828
138	0x3cac9607	0.021067632
139	0x3c87a5b5	0.016558507
140	0x3def53f5	0.116859354
141	0x3b0bea45	0.0021349352
142	0xbcb1d001	-0.02170563
143	0xbd4bf08b	-0.049789947
144	0x3d18bfcf	0.037292298
145	0x3da0169f	0.07816815
146	0xbd06eff3	-0.032943677
147	0xbb5b97db	-0.003350726
148	0xbcc7697a	-0.024342287
149	0xbdd31874	-0.103073984
150	0x3d07142b	0.032978218
151	0x3b27caa5	0.0025602963
152	0x3ce4be49	0.027922766
153	0x3d1b7320	0.03795159
154	0xbb9df3db	-0.0048203296
155	0x3c4e5f9d	0.012596038
156	0x3d09e080	0.033661366
157	0xbdddfeaa	-0.10839589
158	0xbc1bfecb	-0.009521197
159	0x3c0d275b	0.00861534
160	0xbd1278ec	-0.03575985
161	0x3d74bdd5	0.05975135
162	0x3d0ec57e	0.034856312
163	0x3ae6efb3	0.0017619043
164	0xbd3f3c2a	-0.046688236
165	0x3d0e5349	0.034747396
166	0x3cd5869f	0.026065169
167	0xbc307a42	-0.010771336
168	0x3cd3b943	0.025845176
169	0xbcf52a3c	-0.029927365
170	0x3c69bae5	0.014265751
171	0xbcb5b08d	-0.022178913
172	0x3d04ecde	0.032452457
173	0xbca2aab2	-0.019856784
174	0xbcf0f47e	-0.029413458
175	0x3c8e6475	0.017381886
176	0xbcbb34d3	-0.022852337
177	0xbcb02dd1	-0.021506222
178	0x3c7f9cc5	0.015601342
179	0xbd0a9984	-0.03383781
180	0x3c8db32e	0.017297354
181	0x3d898c95	0.06716267
182	0xbc1812b5	-0.009281804
183	0xbc451d4d	-0.012030912
184	0x3d8d929e	0.06912731
185	0xbb7f7e75	-0.0038985286
186	0x3d10e2c5	0.035372514
187	0xbd6117b2	-0.05495424
188	0xbd26a835	-0.04068776
189	0x3ea1e520	0.3162012
190	0xbd209f93	-0.03921468
191	0xbd3852f2	-0.045000978
192	0xbcddeeb7	-0.027091367
193	0x3d754307	0.059878375
194	0x3c07b89d	0.008283761
195	0xbc5979ad	-0.013273639
196	0x3d558c4f	0.05213576
197	0x3c9db638	0.019251928
198	0xbc8887b9	-0.01666628
199	0x3d073f7c	0.033019528
200	0x3cd187e8	0.0255775
201	0xbcbd2fb1	-0.02309403
202	0x3ca65358	0.020303413
203	0x3cbd0460	0.023073375
204	0x3d707cfa	0.058712937
205	0xbd2c7e8b	-0.04211287
206	0xbcc8933e	-0.024484273
207	0x3cb7a4ac	0.022417389
208	0x3cbd38b6	0.023098331
209	0x3c964186	0.01834179
210	0x3c1d2555	0.00959142
211	0xbcc4cb7b	-0.024022808
212	0xbc5a4a48	-0.013323374
213	0x3d9a5169	0.07535059
214	0x3c596a03	0.013269904
215	0x3cf94a6a	0.030430991
216	0x3cde619f	0.027146159
217	0x3c69622c	0.014244597
218	0x3cf90bc7	0.030401124
219	0xbc87691a	-0.016529609
220	0xbb022e08	-0.0019863863
221	0xbe3a60f1	-0.18201043
222	0xbcd17e6c	-0.025572978
223	0x3c643a23	0.0139298765
224	0xbc4c3bc2	-0.012465419
225	0xbd049060	-0.03236425
226	0x3b5f8fa4	0.0034112716
227	0x3ca57478	0.020197138
228	0xbd0d18f4	-0.034447625
229	0x3c7a19d0	0.015264943
230	0xbae9ee14	-0.0017847442
231	0x3cd63b00	0.02615118
232	0x3c82b933	0.01595745
233	0xbd7efb98	-0.062251657
234	0x3bd4d0bc	0.0064946096
235	0xbc6f24a0	-0.014596134
236	0xbd003b10	-0.031306326
237	0x3e72de1a	0.23717538
238	0xbb49a0eb	-0.003076608
239	0xbd197ca8	-0.037472397
240	0x3d9bdad4	0.076100975
241	0xbd17c704	-0.03705503
242	0xbc9b5b39	-0.018964397
243	0xbbdcd03b	-0.00673869
244	0x3c3b7111	0.011440531
245	0x3d0bf0c7	0.03416517
246	0xbc0998de	-0.008398263
247	0x3d34ec39	0.044170592
248	0x3d2a21d5	0.04153617
249	0x3cf52ddf	0.0299291
250	0x3c976c63	0.0184843
251	0xbcb01f1d	-0.021499211
252	0xbd30efb9	-0.043197367
253	0x3d8c359d	0.068461634
254	0x3ac82b42	0.0015271681
255	0xbc232fdd	-0.009960142

fc1.bias f4 [512]
0	0xbdf67ffe	-0.12036131
1	0xbce9dce0	-0.028547704
2	0xbbf66dbf	-0.007520407
3	0xbda52582	-0.08063795
4	0xbb8b9ed9	-0.0042608795
5	0x3e062e73	0.13103656
6	0xbdde0cf0	-0.108423114
7	0x3be202b0	0.006897293
8	0x3e55d268	0.20881045
9	0xbe3719b0	-0.17880893
10	0x3df09a8c	0.117482275
11	0xbcf71e9c	-0.030165963
12	0xbe142e86	-0.14470872
13	0xbe54386f	-0.20724653
14	0xbe85db55	-0.261439
15	0x3db42ed1	0.08797992
16	0x3e254588	0.16139805
17	0x3d87e374	0.0663518
18	0xbd8903e5	-0.06690196
19	0x3d844df7	0.06460183
20	0xbc4c13ed	-0.012455923
21	0x3d9a151a	0.07523556
22	0x3e5c7353	0.21528368
23	0xbde5ae8c	-0.11214933
24	0xbe550a5f	-0.20804738
25	0xbcfcd637	-0.030863864
26	0xbd822bdb	-0.06356021
27	0xbe00fd5c	-0.12596649
28	0xbe776bdb	-0.24162237
29	0x3d51a676	0.05118414
30	0xbe57e364	-0.21082836
31	0xbe317c79	-0.17332639
32	0x3dbea4ce	0.09308778
33	0x3e574966	0.21024093
34	0xbe641777	-0.22274576
35	0x3d97d9fe	0.074146256
36	0x3d8ddc53	0.06926789
37	0xbdad9cd3	-0.084771775
38	0xbdaf480c	-0.08558664
39	0x3e541678	0.20711696
40	0xbe41fa6c	-0.18943185
41	0x3e8e56f1	0.27800706
42	0x3e067f33	0.1313446
43	0xbd737a45	-0.059442777
44	0xbe3b70e9	-0.1830479
45	0xbe6f516a	-0.23370901
46	0xbe5f5fd4	-0.218139
47	0xbe0cfac5	-0.13767536
48	0xbe1aeb34	-0.15128785
49	0x3ce4ac59	0.027914213
50	0x3e53d227	0.20685636
51	0x3e693474	0.22773916
52	0xbe7666b5	-0.24062617
53	0x3e6d3a0d	0.23166676
54	0xbcca9b5f	-0.02473229
55	0xbdff8e5e	-0.12478326
56	0x3d9d3065	0.07675246
57	0xbdc7bc9b	-0.097527705
58	0x3de57a1a	0.1120493
59	0xbe58658b	-0.21132486
60	0xbe3c4aa7	-0.18387853
61	0x3d6d5552	0.057942696
62	0x3e47a98f	0.19498275
63	0x3e3441c1	0.17603208
64	0x3de50a61	0.1118362
65	0x3e21646f	0.15760969
66	0x3de6f062	0.11276318
67	0x3dd5ee1f	0.104458086
68	0x3e066a89	0.13126577
69	0xbc07c832	-0.008287476
70	0xbe071922	-0.13193181
71	0xbe35f178	-0.17767894
72	0xbe687ac0	-0.22703075
73	0x3e115b4f	0.14194988
74	0xbe69b24a	-0.22821918
75	0xbe18a22e	-0.14905617
76	0x3e2f0ad6	0.17093977
77	0x3e2a7abd	0.16648383
78	0xbdfaacf3	-0.12240019
79	0x3e48f1ac	0.1962344
80	0x3e6575a2	0.22408155
81	0xbad38bc6	-0.0016139678
82	0xbc9a3fda	-0.018829275
83	0xbe564cfc	-0.20927805
84	0xbcefef37	-0.029288871
85	0xbe0aeba8	-0.13566458
86	0xbdde769a	-0.10862465
87	0xbd442c41	-0.047893766
88	0xbe15e083	-0.14636426
89	0x3e592e4a	0.21209064
90	0xbdb8647d	-0.090035416
91	0x3e8323c7	0.25613233
92	0xbe7bc103	-0.24585347
93	0x3dbd82cc	0.09253463
94	0xba68fd26	-0.000888782
95	0x3e034418	0.12818944
96	0xbe05a91f	-0.13052796
97	0x3d6259e3	0.055261504
98	0x3e7137a6	0.23556384
99	0xbe29ae00	-0.16570282
100	0x3ce36ec4	0.027762778
101	0xbe644d19	-0.22295035
102	0xbe029c87	-0.12755023
103	0xbe0f9311	-0.14020945
104	0xbe06b6d4	-0.13155681
105	0x3e1bffbe	0.15234277
106	0x3e0ead52	0.13933304
107	0x3e3c18d4	0.18368846
108	0xbd644fa9	-0.055740032
109	0xbe535005	-0.20635994
110	0xbde0ef7e	-0.109831795
111	0x3e89f4b5	0.2694451
112	0xbd50cb49	-0.050975118
113	0xbe0a86e8	-0.13528025
114	0xbda5c08a	-0.080933645
115	0x3c091e36	0.008369019
116	0x3e161f72	0.14660433
117	0xbda5395c	-0.08067581
118	0x3e39d488	0.1814748
119	0x3d6f7d5d	0.058469165
120	0xbc1684a4	-0.009186897
121	0x3e00b5b6	0.12569317
122	0xbdf7af2a	-0.12093957
123	0xbde8a2c6	-0.113591716
124	0xbd224345	-0.039614934
125	0xbdafe84f	-0.08589231
126	0xbd4ea432	-0.050449558
127	0xbccd2beb	-0.025045356
128	0x3e1c6f51	0.15276839
129	0xbd2233db	-0.039600234
130	0x3c65ea0d	0.014032853
131	0x3d0640e3	0.032776725
132	0x3e66cfc7	0.22540198
133	0x3e52e7de	0.20596263
134	0xbe263d4d	-0.16234322
135	0xbd976e8c	-0.07394132
136	0x3e52533e	0.20539567
137	0x3e5e9adf	0.21738766
138	0xbe4b71f3	-0.19867687
139	0xbe4344cf	-0.19069217
140	0xbdfbee94	-0.123013645
141	0xbd4b5215	-0.049638826
142	0x3d268b7f	0.040660378
143	0xbdd8a350	-0.105780244
144	0xbe7593df	-0.2398219
145	0xbe22f462	-0.15913537
146	0xbdf8aae4	-0.1214197
147	0xbe105665	-0.14095457
148	0xbe17f2f0	-0.14838767
149	0xbd7f611c	-0.06234847
150	0xbe1c29a7	-0.15250264
151	0x3d9aed19	0.07564754
152	0x3dad446b	0.08460315
153	0x3e20eb93	0.15714864
154	0x3e22d0c5	0.15899952
155	0x3d50b5c4	0.050954595
156	0x3df87b6f	0.12132918
157	0x3e25dfa5	0.16198595
158	0xbc75f21a	-0.015011335
159	0xbe726e23	-0.23674826
160	0xbe0cae22	-0.13738301
161	0x3e433cee	0.19066212
162	0xbbd99b1d	-0.0066408054
163	0x3d7d711b	0.061875444
164	0x3e21aff4	0.15789777
165	0x3e835558	0.2565105
166	0xbd7f794f	-0.06237155
167	0xbde846cd	-0.11341629
168	0x3c0346bf	0.008012473
169	0x3e4b40ad	0.1984889
170	0x3e283884	0.16427809
171	0xbcb7280f	-0.022357969
172	0xbe0f0b59	-0.13969173
173	0x3e592b88	0.21208012
174	0xbd21e3c4	-0.039523855
175	0x3e19406c	0.14965981
176	0x3da370a8	0.07980472
177	0x3d9aa856	0.07551639
178	0xbd2b63e7	-0.04184332
179	0xbdbe021a	-0.092777446
180	0x3dd12098	0.10211295
181	0x3df8de45	0.121517695
182	0x3d63713c	0.05552791
183	0x3d59b89b	0.05315457
184	0xbe2b18c1	-0.16708662
185	0xbdda34e9	-0.10654623
186	0xbba8f3b7	-0.005156006
187	0xbe139b79	-0.14414777
188	0x3d0776ca	0.03307227
189	0x3dc0d763	0.09416082
190	0x3db055dc	0.086101264
191	0xbd4f5ea8	-0.05062738
192	0x3ddf96bd	0.10917423
193	0x3ae682ee	0.0017586628
194	0xbe1dafa2	-0.1539903
195	0x3deefd75	0.11669437
196	0xbd6d5f07	-0.057951953
197	0x3e13bde0	0.144279
198	0xbe3e985d	-0.1861281
199	0xbe8897f9	-0.26678446
200	0x3e2e56c0	0.1702528
201	0xbd15a8b9	-0.03653786
202	0x3d50f27c	0.0510125
203	0xbc7fadcc	-0.015605401
204	0xbe62d25a	-0.22150555
205	0x3e39b271	0.18134476
206	0x3e38966e	0.18026134
207	0x3e720821	0.23635913
208	0xbe08d2b4	-0.13361627
209	0xbdc8eac8	-0.09810406
210	0xbe2ea291	-0.17054202
211	0xbe5a9a90	-0.21348023
212	0xbe6e434b	-0.23267858
213	0x3d9eb093	0.077485226
214	0x3dfced79	0.12349982
215	0x3bb38e98	0.005479645
216	0xbe09fd1b	-0.13475458
217	0x3e70ffb1	0.23535039
218	0xbda6242d	-0.08112369
219	0xbe0a0323	-0.13477759
220	0xbe913e85	-0.2836801
221	0xbc7b38da	-0.015333379
222	0x3c4b2475	0.012398829
223	0x3e22fd37	0.15916906
224	0xbdf02359	-0.11725492
225	0xbe5bdabb	-0.21470158
226	0xbda1bd4e	-0.07897435
227	0x3dfb9d53	0.122858666
228	0x3d104150	0.035218537
229	0xbb5f27b3	-0.0034050762
230	0x3e2f7fed	0.17138644
231	0x3d5a1955	0.053246815
232	0xbe67f993	-0.22653799
233	0x3e4777a7	0.19479237
234	0xbe4a5a5f	-0.19761036
235	0x3b62f2c6	0.0034629568
236	0x3bc668c7	0.006054971
237	0xbe5b6255	-0.2142423
238	0x3dee0834	0.11622658
239	0x3d92f688	0.07175928
240	0x3d63d2c2	0.055620916
241	0xbe7fdbe2	-0.24986222
242	0x3e3703db	0.17872564
243	0x3e76dc6a	0.24107519
244	0x3d710818	0.05884561
245	0x3ca961ce	0.02067652
246	0xbd37c54f	-0.044865903
247	0xbe0680f4	-0.13135129
248	0x3e7d029c	0.24708027
249	0x3e35f6ac	0.17769879
250	0x3d26be3b	0.04070876
251	0x3d172a81	0.03690577
252	0x3df963fd	0.121772744
253	0xbe57355a	-0.21016446
254	0x3d213c1b	0.03936396
255	0xbe8c520b	-0.27406344

fc2.weight f4 [384, 514]
0	0xbd70c627	-0.058782723
1	0xbd612b85	-0.054973144
2	0xbc409fc3	-0.01175684
3	0x3c2672c2	0.010159196
4	0xbd2d7cb1	-0.042355243
5	0x3d24e646	0.04025867
6	0x3c822c44	0.015890248
7	0xbca6b274	-0.020348765
8	0xbd3877c9	-0.04503611
9	0x3c4c07e7	0.012453056
10	0x3bbd77ab	0.005782088
11	0xbcc4c39d	-0.024019057
12	0xbb931527	-0.0044886055
13	0x3d28fd68	0.041257292
14	0x3cefaf39	0.029258357
15	0xbd436afd	-0.047709454
16	0x3c4e4002	0.012588503
17	0x3be91e14	0.0071141813
18	0x3b11cfb5	0.0022249047
19	0xbd4c14bd	-0.049824465
20	0x3d275973	0.04085679
21	0x3d1fe931	0.039040748
22	0x3c81d9c0	0.015850902
23	0x3bb1f842	0.005431206
24	0xbc1abedb	-0.009444918
25	0xbd469ef2	-0.048491426
26	0xbd3a1eb9	-0.045439456
27	0xbd1d7cf7	-0.038449254
28	0xbc36acd1	-0.011149601
29	0x3b99cca3	0.004693584
30	0xbca1e1f8	-0.01976107
31	0x3c65ba19	0.01402142
32	0xbbf007ce	-0.007325149
33	0xbc5d8390	-0.0135201365
34	0x394b35b4	0.00019379595
35	0xba82c962	-0.000997823
36	0x3d3cc9d7	0.046090927
37	0x3cabed8f	0.0209873
38	0xbd2de6f5	-0.042456586
39	0xbcd48bcc	-0.025945567
40	0x3b4b5c8e	0.0031030509
41	0x3d288481	0.04114199
42	0xbc33192f	-0.010931297
43	0xbcc104ee	-0.023561921
44	0xbd54fcf5	-0.05199905
45	0xbc836ae5	-0.016042182
46	0x3c88072c	0.016604982
47	0xbcb0db78	-0.021589026
48	0xbd16bb8d	-0.036799956
49	0xbd7f731c	-0.062365636
50	0x3d1d06b4	0.03833647
51	0x3c22a49a	0.009926939
52	0x3bc7883b	0.006089238
53	0xbd49c206	-0.0492573
54	0x3c2a303b	0.010387476
55	0xbd56e0e8	-0.05246058
56	0x3c163f66	0.009170389
57	0xbc903838	-0.017604932
58	0x3b30b884	0.0026965449
59	0x3d1c0b2a	0.038096584
60	0x3a82a24e	0.0009966583
61	0x3c53eb95	0.012934585
62	0x3cdff1f3	0.02733705
63	0x3c3eca76	0.01164495
64	0xbd0c8813	-0.034309458
65	0x38b49892	8.611487e-05
66	0x3cf879ce	0.030331519
67	0x3c7d5051	0.015461043
68	0xbbe0f893	-0.00686557
69	0xbd0c34fc	-0.034230217
70	0xbc95be89	-0.01827933
71	0xbd1ab5e8	-0.037771136
72	0xbd0dc950	-0.034615815
73	0x3c95ab45	0.018270144
74	0xbb02b312	-0.001994316
75	0xbcc0dc47	-0.023542536
76	0xbb08d978	-0.0020881575
77	0x3ca31182	0.01990581
78	0x3d24dddd	0.040250648
79	0xbd3fe52c	-0.046849415
80	0x3c694b01	0.014239074
81	0x3cf44b50	0.029821068
82	0x3b7abbe3	0.0038258962
83	0x3ccab49b	0.024744323
84	0xbd2a741c	-0.041614637
85	0xbcadc78f	-0.021213321
86	0xbd305e43	-0.043058645
87	0xbd2ba4bf	-0.04190516
88	0xba2d5094	-0.00066114333
89	0xbd224abd	-0.039622057
90	0x3912872f	0.00013974005
91	0xbcfe080f	-0.031009702
92	0xb9b386ff	-0.0003424212
93	0x3c812546	0.015764844
94	0xbc40f2f2	-0.011776673
95	0xbcf1d07e	-0.029518362
96	0x3a59eb4a	0.0008312954
97	0xbd1f9880	-0.038963795
98	0xbc150f75	-0.0090979235
99	0xbc0aa7f8	-0.008462898
100	0x3c9bdf31	0.019027324
101	0xbd56cd99	-0.052442167
102	0xbd0a2100	-0.033722878
103	0xbc222a45	-0.009897773
104	0x3c65e779	0.014032238
105	0xbcd1a98e	-0.025593545
106	0xbcd35806	-0.025798809
107	0xbc0ba149	-0.00852234
108	0xbb150a2b	-0.0022741656
109	0xba8a1c4f	-0.0010537001
110	0x3cb70e3b	0.022345653
111	0x3d0487c1	0.032356028
112	0xbd0d290d	-0.034462977
113	0x3cffcd68	0.031225875
114	0xbc1531fa	-0.009106154
115	0x3d06e76c	0.032935545
116	0xbc92e8d0	-0.01793328
117	0xbbeaf4de	-0.0071703037
118	0x3d453071	0.0481419
119	0x3a93b657	0.0011269551
120	0x3cb16f4e	0.02165952
121	0x3d03552f	0.03206366
122	0x3c7b5048	0.015338965
123	0xbc6ed0d7	-0.0145761585
124	0xbcb6263f	-0.022235034
125	0x3c38e048	0.011283942
126	0xbd25975a	-0.040427543
127	0x3cfc98b1	0.030834528
128	0xbd25d17d	-0.040482987
129	0xbcb96561	-0.022631349
130	0xbd3eddd9	-0.04659829
131	0xbcaaed46	-0.020865094
132	0x3c7e7cf7	0.015532724
133	0x3c866471	0.016405316
134	0xbcc42c09	-0.023946779
135	0x3d13cede	0.036085956
136	0x3cd48573	0.02594254
137	0xbd3941b2	-0.045228668
138	0xbd35a01e	-0.044342153
139	0xbc9e59fe	-0.019330021
140	0xbcb7f8d6	-0.022457521
141	0xbc6b4afc	-0.014361139
142	0x3d2c1448	0.04201153
143	0xbca52dcf	-0.020163445
144	0xbd3c277f	-0.045936104
145	0xbcc8e632	-0.024523828
146	0x3d1d5b4a	0.03841714
147	0x3d08f45f	0.033436175
148	0xbbb56036	-0.005535151
149	0xbd5612b7	-0.05226394
150	0xbcf1cec1	-0.029517533
151	0xbca4e230	-0.020127386
152	0x3b435647	0.0029806064
153	0xbca4e944	-0.020130761
154	0x3cdd49c7	0.027012719
155	0xbd115574	-0.035481885
156	0x3d0a1222	0.0337087
157	0xbba9efd5	-0.005186061
158	0x3cfdcb3d	0.0309807
159	0xbcb8cd36	-0.02255879
160	0xbd676039	-0.05648825
161	0xbd5e0e95	-0.054213125
162	0x3b36b747	0.0027880238
163	0x3c86ce6d	0.016455853
164	0x3d0961fa	0.033540703
165	0xbca8ef68	-0.02062197
166	0x3cf16877	0.029468758
167	0xbcd96e65	-0.026541898
168	0x3d128ed8	0.035780758
169	0xbccc6ea4	-0.024955101
170	0xbca439ac	-0.020047031
171	0xbc1662dd	-0.009178844
172	0x3c5905f8	0.013246052
173	0xbc9e14cc	-0.019297026
174	0x3cb089df	0.021550117
175	0xbcff2466	-0.031145286
176	0xbccf8785	-0.025333175
177	0xbd37985b	-0.044823032
178	0xbce7c392	-0.028291497
179	0x3d10da41	0.035364393
180	0xbd04fc21	-0.03246701
181	0x3c726f9a	0.014797116
182	0xbb582b86	-0.0032984926
183	0x3b4ce8a5	0.0031266597
184	0x3c1aa13b	0.009437854
185	0x3ccd0312	0.025025878
186	0xbd3f85ca	-0.04675845
187	0x3b8d1934	0.004305983
188	0xbd4500d9	-0.04809651
189	0x3cc234eb	0.023706874
190	0xbc75adf4	-0.014995087
191	0xbd12fb93	-0.03588445
192	0xbcc0c9a4	-0.02353365
193	0xbbb1e8cb	-0.0054293624
194	0x3d1387f4	0.036018327
195	0xbcbaed1a	-0.022818137
196	0x3d0cce0f	0.0343762
197	0x3c9690c9	0.018379586
198	0xbd108d07	-0.035290744
199	0xbd46f4bd	-0.048573244
200	0xbd934068	-0.07190019
201	0xbcea737e	-0.028619524
202	0x3c182442	0.009285988
203	0x3d152347	0.036410596
204	0x3c00003d	0.007812557
205	0x3cc93f1c	0.024566226
206	0x3ccbee90	0.024894029
207	0x3cf6b000	0.03011322
208	0xbc7620ef	-0.0150225
209	0x3c23cfa8	0.00999824
210	0x3b587974	0.0033031376
211	0xbd274228	-0.040834576
212	0xbbe67b3c	-0.0070337337
213	0x3c152cc5	0.009104912
214	0x3d205e30	0.039152324
215	0xbd3e52aa	-0.046465553
216	0x3c9d8aac	0.019231163
217	0xbcf77182	-0.030205492
218	0x3cec120f	0.028817205
219	0x39500a54	0.00019840273
220	0xbb6dff15	-0.003631537
221	0xbcf582d2	-0.029969607
222	0x3b8dfae1	0.0043328856
223	0xbbef8b21	-0.0073102866
224	0x3d0d5239	0.03450224
225	0xbd3bf4c8	-0.04588774
226	0xbd841922	-0.06450106
227	0x3cd869fc	0.026417725
228	0xbd2b83bc	-0.04187368
229	0x3d1f0f04	0.03883268
230	0x3d3c1586	0.045918964
231	0x3c7236db	0.014783586
232	0x3d23a33d	0.039950598
233	0x3d159af7	0.03652474
234	0x3c4e3e69	0.012588122
235	0x3c7e3e55	0.015517791
236	0xbd55312c	-0.052048847
237	0x3d0cc489	0.034367118
238	0xbd39c11a	-0.04535017
239	0x3c2f99cc	0.01071782
240	0xbb993d82	-0.0046765218
241	0xbc1c525f	-0.009541123
242	0xbd458257	-0.048220005
243	0xbcf28c28	-0.029607847
244	0xbd5ec5e8	-0.054387957
245	0x3d41d6a9	0.047323857
246	0x3c42650a	0.01186491
247	0x3d1450b5	0.03620978
248	0xbd2b0ea9	-0.041762028
249	0x3cacc354	0.021089233
250	0x3c830594	0.01599387
251	0x3cdd1846	0.026989114
252	0x3c9baffa	0.01900481
253	0xbd54c558	-0.051946014
254	0xbcb24318	-0.021760508
255	0xbc97aaaa	-0.018513996

fc2.bias f4 [384]
0	0xbcddad29	-0.027060108
1	0xbcf43863	-0.029812044
2	0xbd7325d7	-0.05936226
3	0x3c93d64f	0.018046526
4	0xbd90b946	-0.07066588
5	0xbde3dc22	-0.111259714
6	0xba20609e	-0.00061179127
7	0xbcc66e34	-0.02422247
8	0x3d1c4701	0.038153652
9	0x3e10e266	0.14148864
10	0xbdc7f151	-0.09762824
11	0xbd431b01	-0.047633175
12	0x3de6f607	0.11277395
13	0x3c3c00c6	0.011474794
14	0xbd0e7648	-0.03478077
15	0x3b8e6a5c	0.004346175
16	0xbd8cf650	-0.06882918
17	0xbd295254	-0.04133828
18	0x3dd4244e	0.10358487
19	0x3c91800f	0.017761258
20	0x3c05dbc4	0.008170072
21	0xbd108ccd	-0.035290528
22	0xbcdc13de	-0.026864942
23	0x3d0abacc	0.03386955
24	0xbc75d073	-0.015003311
25	0xbced4529	-0.028963642
26	0xbc9464df	-0.018114505
27	0xbb87e142	-0.004146726
28	0x3d5567a0	0.052100778
29	0x3cedd07a	0.029030073
30	0x3d6f0d14	0.05836208
31	0xb9d17a74	-0.0003995482
32	0xbce5d063	-0.028053468
33	0x3c1a35e8	0.009412266
34	0xbd42d1b1	-0.04756326
35	0xbdaa5dc8	-0.083186686
36	0x3d0cef91	0.034408156
37	0xbc8f0d70	-0.017462462
38	0xbb77abf7	-0.0037791708
39	0xbd469b76	-0.048488103
40	0x3d8afeee	0.06786905
41	0xbbc86bed	-0.0061163814
42	0xbd11589c	-0.035484895
43	0x3c155b7f	0.009116053
44	0x3b9e8aea	0.004838337
45	0x3dd5dcf6	0.104425356
46	0x3ba38d99	0.004991245
47	0x3dd0ce46	0.101955935
48	0xbbf9dd88	-0.0076252855
49	0xbd2b81ad	-0.041871715
50	0xbc9c306f	-0.019066064
51	0x3ca344e7	0.019930316
52	0xbe0284cd	-0.12745972
53	0x3bb52a2d	0.0055287094
54	0xbd4cc60f	-0.04999357
55	0x3deff2e6	0.11716251
56	0xbd23c0f2	-0.03997893
57	0xbc8a9f4d	-0.016921664
58	0x3ca40933	0.020023918
59	0x3b756d61	0.0037449228
60	0x3d7ef2a8	0.062243134
61	0xbbfdbc74	-0.0077434126
62	0x3d6a849e	0.05725538
63	0xbca0604a	-0.019577164
64	0x3a795bb7	0.0009512263
65	0xbbf0e153	-0.0073510795
66	0x3c0c4ca1	0.008563192
67	0xbc6f4028	-0.014602698
68	0xbc1066ba	-0.008813554
69	0xbd065ec7	-0.03280523
70	0x3bf359d8	0.0074264817
71	0x3d0c1123	0.03419603
72	0xbd012458	-0.0315288
73	0xbd3cb76f	-0.046073373
74	0xbc842846	-0.016132485
75	0x3aba9294	0.0014234358
76	0x3c594754	0.013261635
77	0x3c03f581	0.008054138
78	0xbb50402c	-0.003177653
79	0x3cd99aff	0.026563166
80	0xba7b40a9	-0.0009584525
81	0x3cdce30a	0.02696373
82	0xbbdc27e2	-0.0067186216
83	0x3d33bb1e	0.04387962
84	0x3e56968c	0.20955867
85	0xbb0125d0	-0.0019706376
86	0xbdcf568b	-0.10123929
87	0xbc08dbd9	-0.008353197
88	0x3cd1232d	0.025529468
89	0x3b4e0bee	0.0031440216
90	0x3cbdb09c	0.023155503
91	0x3d9b2aa4	0.075764924
92	0xbac5d4ac	-0.0015093288
93	0xbd689490	-0.056782305
94	0xbc071699	-0.008245134
95	0x3dfc2782	0.12312223
96	0xbd577e4e	-0.052610688
97	0xbd682adb	-0.056681495
98	0xbd92e97d	-0.071734406
99	0xbd0722d5	-0.032992203
100	0xbd14fffd	-0.036376942
101	0x3db01c19	0.08599109
102	0xbce7db1c	-0.028302722
103	0xbd80068b	-0.06251248
104	0x3d07b4ec	0.033131525
105	0xbcf9d4a7	-0.030496908
106	0x3ca27b0e	0.019834068
107	0x3bf2124b	0.0073874346
108	0xbd911a8f	-0.07085144
109	0xbda63204	-0.081150085
110	0x3c8c3c1d	0.017118508
111	0xbd33bb46	-0.04387977
112	0xbd005e91	-0.031340186
113	0x3c3ba8ba	0.011453802
114	0x3c5c02b6	0.013428381
115	0x3d4405ee	0.047857217
116	0xbb7db13f	-0.0038710383
117	0x3cd8dd32	0.026472662
118	0x3c15e5e3	0.009149048
119	0x3cd870cc	0.026420973
120	0xbb88c1e2	-0.0041735033
121	0x3c1c9f1d	0.00955942
122	0x3ca60d79	0.020270096
123	0xbd05718a	-0.032578982
124	0xbdc50a6f	-0.09621131
125	0xbd05e28f	-0.032686766
126	0x3d986777	0.07441609
127	0xbbe0b4e8	-0.006857503
128	0x3c34a8de	0.011026589
129	0xbd05d905	-0.03267767
130	0xbd506f84	-0.0508876
131	0x3d64ec24	0.055889264
132	0x3c448152	0.011993723
133	0xbc641c5d	-0.013922778
134	0xbe13602d	-0.14392157
135	0xbcb75028	-0.022377089
136	0xbd80a579	-0.062815614
137	0xbd82bb99	-0.06383438
138	0xbbb6c4bc	-0.005577652
139	0x3e7dd093	0.24786596
140	0xbdafcd50	-0.08584082
141	0xbd012755	-0.03153165
142	0xbd53da0f	-0.05172163
143	0x3e3031ff	0.17206572
144	0xbbd64abe	-0.0065396717
145	0xbd4e91d6	-0.05043205
146	0x3d60b5e0	0.05486095
147	0xbae6dec0	-0.0017613992
148	0x3def95de	0.11698507
149	0x3c2edf2b	0.010673325
150	0xbc7165a9	-0.01473371
151	0xbd844fd9	-0.06460542
152	0xbd2c3f62	-0.042052634
153	0xbd540763	-0.051764857
154	0xbd530b4d	-0.05152445
155	0x3c849a1c	0.016186766
156	0xbd1a0139	-0.037598822
157	0x3d1b3f65	0.037902255
158	0xbcc19e0d	-0.023634935
159	0xbc88311b	-0.016624978
160	0xbd0f6325	-0.03500666
161	0x3cda9e22	0.026686732
162	0xbb7e9641	-0.0038846883
163	0x3df8356b	0.12119564
164	0xbc97467a	-0.018466223
165	0xbd39b5cf	-0.0453394
166	0x3cc7813e	0.02435362
167	0x3d6f157a	0.05837009
168	0x3cba9bf1	0.022779437
169	0xbba2074a	-0.0049447166
170	0x3db56df4	0.088588625
171	0x3de18d4d	0.11013279
172	0x3c73920b	0.014866362
173	0xbc859e3c	-0.016310804
174	0x3c601b5e	0.0136784
175	0x3cedb28e	0.029015806
176	0x3ddec8c8	0.1087814
177	0xbca7638f	-0.020433215
178	0xbab46872	-0.0013764037
179	0x3d587682	0.052847393
180	0xbd270974	-0.0407805
181	0xbaf0a349	-0.001835921
182	0xbd640c68	-0.055675894
183	0xbd257883	-0.040398132
184	0xbc4adcad	-0.012381715
185	0xbd213e72	-0.039366193
186	0xbd21fd26	-0.03954806
187	0xbd3b0585	-0.04565956
188	0x3c1d56fc	0.009603258
189	0xbe0dada7	-0.13835774
190	0xbcf7df11	-0.030257734
191	0x3d1d783a	0.038444735
192	0x3cbb3a9f	0.022855101
193	0xbd680f29	-0.056655083
194	0xbb272a56	-0.0025507412
195	0xbd5c4c3f	-0.05378365
196	0x3c0f0ed3	0.008731562
197	0x3cd206ef	0.025638072
198	0xbcef9c61	-0.029249372
199	0xbd75ff5a	-0.060057975
200	0xbd4d53e8	-0.050128847
201	0xbd5aec86	-0.053448223
202	0xbd2f2add	-0.042765487
203	0xbd971ffe	-0.07379149
204	0x3d9d95bb	0.076945744
205	0x3d33ca7e	0.043894283
206	0xbd3b976e	-0.04579871
207	0xbc99a04c	-0.018753193
208	0x3d09f94b	0.03368501
209	0x391e7193	0.00015110364
210	0xbd5faa26	-0.054605626
211	0xbb8c997d	-0.004290758
212	0x3ced978d	0.02900293
213	0xbd14f4e9	-0.036366377
214	0xbc2353ef	-0.009968742
215	0x3c5931a2	0.013256462
216	0xbc2e9a25	-0.010656868
217	0x3d017807	0.031608608
218	0x3dbc82fa	0.09204669
219	0xbd801250	-0.06253493
220	0x3c9284ea	0.017885644
221	0xbc770acf	-0.015078261
222	0xbc97ad26	-0.01851518
223	0xbc0a612a	-0.008446017
224	0xbdc65725	-0.0968459
225	0xbd29d919	-0.041466806
226	0x3e30c4fb	0.17262642
227	0x3cd1c472	0.025606368
228	0xbca94211	-0.020661386
229	0x3e0ff51f	0.1405835
230	0xbc6f61b1	-0.014610694
231	0xbd1da13a	-0.038483836
232	0x3de129f3	0.10994329
233	0xbc098f7b	-0.008396025
234	0x3c85ec45	0.016348014
235	0x3c61852a	0.013764659
236	0xbb83a4f9	-0.004017469
237	0x3c386f5a	0.011257017
238	0x3d862d7e	0.06551646
239	0xbcedd7f4	-0.029033639
240	0xbc18e1d6	-0.009331187
241	0xbc708501	-0.014680148
242	0xbcb29c52	-0.021803055
243	0x3e5ea69e	0.21743247
244	0xbd42e5c6	-0.04758241
245	0xbce6a9c7	-0.028157128
246	0xbc8bdfe0	-0.017074525
247	0x3c0c4170	0.008560523
248	0xbc5df989	-0.013548263
249	0xbb999f01	-0.004688144
250	0xbd6371da	-0.0555285
251	0x3d1ca0b2	0.03823919
252	0x3d9a4910	0.07533467
253	0xbc71bea4	-0.014754925
254	0x3cae37c6	0.02126683
255	0xbcfa7c53	-0.03057686

fc3.weight f4 [1, 384]
0	0x3af06e04	0.0018343334
1	0xbd87118d	-0.065951444
2	0xbd0b14f4	-0.03395553
3	0x3c9e6c70	0.019338816
4	0xbc6877f7	-0.014188758
5	0xbd439cc2	-0.047756918
6	0x3bb85ac4	0.0056260545
7	0x3d467905	0.048455257
8	0x3cc82774	0.024432875
9	0x3cb35c35	0.021894554
10	0xbd8e17b3	-0.06938114
11	0xb98df754	-0.0002707789
12	0x3c9e5ddd	0.019331867
13	0xba428cda	-0.0007421501
14	0xbd3e2f15	-0.04643162
15	0x3db26175	0.08709995
16	0xbde29967	-0.110644154
17	0xbda11e49	-0.078671046
18	0x3d22fe64	0.039793387
19	0xbd1c7a6a	-0.03820268
20	0x3a2d8652	0.00066194416
21	0x3cfbf46d	0.0307562
22	0xbd8c7828	-0.068588555
23	0xbd18cc8d	-0.03730445
24	0x3b690da4	0.003556111
25	0xbd8bfa8e	-0.06834899
26	0x3b13652e	0.0022490728
27	0x3b5db88b	0.003383192
28	0x3c91ded4	0.017806448
29	0xbda1a0ae	-0.07891975
30	0x3d5a3d53	0.05328114
31	0xbaa69216	-0.0012708332
32	0xbc7a6745	-0.01528341
33	0x3b0ebc22	0.0021779616
34	0xba57e3af	-0.00082355266
35	0xbd5d1437	-0.053974357
36	0x3c97d69b	0.018534949
37	0xbb58d6cc	-0.0033087013
38	0xbab2b39f	-0.0013633854
39	0xbd8c91aa	-0.06863721
40	0x3ce090fe	0.027412888
41	0x3c25e57b	0.010125513
42	0xbdbb8386	-0.091559455
43	0xba9b5f0b	-0.0011853887
44	0x3bafdb64	0.0053667296
45	0x3c09ac21	0.008402855
46	0xbb47783f	-0.0030436662
47	0x3c930e0e	0.017951038
48	0x3a566133	0.0008177936
49	0x3d53c1ae	0.05169838
50	0xb77db2f0	-1.5121637e-05
51	0x3936cb46	0.00017432598
52	0xbe278300	-0.16358566
53	0x38c5ea59	9.437343e-05
54	0x3dd1b423	0.102394365
55	0x3c31bdf7	0.010848514
56	0x3d589d01	0.052884106
57	0x3a0fa828	0.00054800743
58	0xbb0b2fd7	-0.0021238232
59	0x3c257734	0.010099221
60	0x3d961f8f	0.07330238
61	0x3d7632ce	0.060107045
62	0x3d57373a	0.052542903
63	0xbd081eb3	-0.033232402
64	0x3cccb11b	0.024986794
65	0xbe8bed2f	-0.27329394
66	0xbd6eb04b	-0.058273595
67	0xbddc5634	-0.107586294
68	0x3d0e071e	0.034674756
69	0x3d2e18da	0.04250417
70	0xbdabaf85	-0.08383087
71	0x3cea1d7b	0.02857851
72	0xbd4d7cad	-0.05016773
73	0x3d252f8a	0.04032854
74	0x3b5b7284	0.0033485005
75	0x3d8cbbaf	0.06871735
76	0x3dbaabef	0.09114825
77	0x3a8b4cf2	0.001062779
78	0xb9a24a9d	-0.0003095464
79	0xbacb1f55	-0.0015497009
80	0xbdc6334d	-0.096777536
81	0x3e02b610	0.12764764
82	0xba4499b0	-0.0007499708
83	0x3d0f96b1	0.03505582
84	0x3cc805af	0.024416773
85	0xbcf1dc36	-0.02952395
86	0xbc6909f5	-0.014223565
87	0xbb3019aa	-0.0026870766
88	0x3daa6247	0.08319526
89	0x3aaaec10	0.0013040323
90	0x3c9dfe99	0.01928644
91	0x3d45ca14	0.04828842
92	0xbcf91270	-0.0304043
93	0xbc72fc7d	-0.014830706
94	0xbdc08bde	-0.094016775
95	0x3c129f09	0.00894905
96	0xbd11c307	-0.035586383
97	0xbcb74937	-0.022373779
98	0xbd256cb8	-0.040386885
99	0xba3e3e9f	-0.0007257256
100	0xbd65876e	-0.05603736
101	0xba045871	-0.0005048579
102	0xbbbb670b	-0.005719071
103	0x3d8bdaf5	0.06828872
104	0x3db7ad41	0.089685924
105	0xbd6d45f1	-0.05792803
106	0x3dc6f528	0.097147286
107	0xbad1051d	-0.0015946958
108	0xbd13c5ad	-0.03607719
109	0xbc85f567	-0.016352369
110	0x3cd722e8	0.026261762
111	0x3cd3279d	0.025775725
112	0x3d0a0ccb	0.033703607
113	0x3ba259db	0.0049545593
114	0xbb55d72c	-0.0032629473
115	0x3c3d5aed	0.011557323
116	0x3b32e5a8	0.002729753
117	0x3aa8f842	0.0012891369
118	0xbd853d9b	-0.06505891
119	0x3d2cd124	0.04219164
120	0x3b191101	0.0023356082
121	0x3acd2621	0.0015651622
122	0xbb432651	-0.0029777477
123	0xbbc43a95	-0.005988429
124	0xbd54da48	-0.05196598
125	0x3d1789bc	0.036996588
126	0x3dd31fc7	0.103087954
127	0x3a178616	0.0005780173
128	0x3c04d87f	0.008108257
129	0xbd4cc6d3	-0.0499943
130	0x3adcfbeb	0.0016859745
131	0x3cd206a1	0.025637927
132	0xbc467887	-0.012113697
133	0xba92eeae	-0.0011210048
134	0xbdb27623	-0.08713939
135	0x3ae16eb1	0.0017199126
136	0xbceaefc7	-0.028678788
137	0xba10d65d	-0.00055251067
138	0xbd95a657	-0.073071174
139	0x3c959199	0.018257903
140	0xbce18e8d	-0.027533794
141	0x3cd3842b	0.025819859
142	0xbd31b2e5	-0.043383498
143	0x3c0966ab	0.008386294
144	0xbc119eca	-0.008887956
145	0xbb9878c3	-0.004653068
146	0x3dbc026b	0.09180149
147	0x3cc6e10a	0.024277229
148	0x3c92782a	0.017879564
149	0xbd813dd1	-0.06310619
150	0xb9b796f1	-0.0003501694
151	0xbd93b5c3	-0.07212403
152	0xba7944d5	-0.0009508853
153	0x3ab28c88	0.0013622204
154	0xbd6d78a5	-0.057976384
155	0x3d24d52b	0.040242355
156	0xb9389175	-0.00017601794
157	0x3d1a00fe	0.037598602
158	0x3b3bf9d8	0.0028682854
159	0xbdec10d2	-0.11526646
160	0xbd85fa4a	-0.065418795
161	0x3cdf09b5	0.027226308
162	0x3b05c3fb	0.0020411003
163	0x3c1b152d	0.009465498
164	0x3d06dbe1	0.032924537
165	0xb88a1f0d	-6.5861364e-05
166	0xbaa4c230	-0.0012570079
167	0x3bed63b1	0.00724455
168	0xbc831b78	-0.016004309
169	0x392f8dbd	0.00016742102
170	0x3ca43121	0.020042958
171	0x3c82f051	0.015983732
172	0xbbf2b056	-0.007406275
173	0x3a206f1c	0.0006120072
174	0xbe42f1d8	-0.19037569
175	0xbd73eebc	-0.059553847
176	0x3c0a5f32	0.008445548
177	0xbb59bc18	-0.0033223685
178	0x3a05b492	0.00051004544
179	0xbdf724b0	-0.120675445
180	0xba60724e	-0.00085619546
181	0x3bbba6e7	0.0057266834
182	0xbd4123da	-0.04715333
183	0xbdd84d21	-0.10561586
184	0xbc9d1505	-0.019175062
185	0xbe13b110	-0.14423013
186	0x3b6d919d	0.0036250122
187	0xba9dbb7c	-0.0012034024
188	0xba35f2e5	-0.0006940796
189	0xbd3d9a59	-0.046289776
190	0xbd5db697	-0.05412921
191	0x3d4c9282	0.04994441
192	0xbd0d79cb	-0.03453998
193	0xbaf9275b	-0.0019008921
194	0xba5d3f54	-0.00084399176
195	0xba4d8d67	-0.00078412
196	0xb9676417	-0.00022067163
197	0x3d93d22f	0.07217824
198	0x3dbce646	0.09223609
199	0xbe11160a	-0.14168563
200	0x3bd88637	0.0066077965
201	0x3a27588d	0.00063837395
202	0xba96470f	-0.0011465269
203	0xbdb37dac	-0.087642044
204	0xbcf16cc0	-0.029470801
205	0x3e1537b5	0.14572032
206	0x3da2e534	0.07953873
207	0xbcb7edbb	-0.022452226
208	0x3c71babd	0.0147539945
209	0xbd3aebf4	-0.04563518
210	0xbdfc5a19	-0.12321872
211	0x3e0c41e9	0.13697018
212	0xbaa8ee15	-0.0012888337
213	0xbd20c198	-0.039247125
214	0x38c8b8d6	9.5711715e-05
215	0x3e2a98b0	0.16659808
216	0x3923465f	0.00015571107
217	0xbd27b144	-0.040940538
218	0x3c094088	0.008377202
219	0xbdd107a5	-0.10206536
220	0xbc08e196	-0.008354565
221	0xbae99cf7	-0.0017823268
222	0xbe2731a7	-0.16327535
223	0x3a9c4653	0.0011922814
224	0xbc64e471	-0.01397048
225	0xbc250347	-0.010071582
226	0x3d47e06f	0.04879802
227	0x3c34808d	0.011016977
228	0xbcc8b9d9	-0.024502682
229	0x3bd6cd62	0.0065552453
230	0xb93a9235	-0.00017792809
231	0x3da9053f	0.08252954
232	0x3ccb89db	0.024846008
233	0x3991314c	0.00027693284
234	0xbae0f50a	-0.0017162871
235	0x39798cc0	0.00023798924
236	0x3d00f7dc	0.031486377
237	0x3bd60076	0.0065308167
238	0x3da3f205	0.08005146
239	0xbdb161ac	-0.086612076
240	0x3ad06632	0.0015899597
241	0xbdb92244	-0.09039739
242	0x3a805cb2	0.000979325
243	0x3c43935e	0.011936991
244	0xbd0fb7dc	-0.03508745
245	0x3e119edb	0.14220755
246	0x3d9aea9e	0.07564281
247	0x3ac46ec3	0.0014986623
248	0xbda440d4	-0.080201775
249	0x39877f67	0.0002584413
250	0xbb111453	-0.0022137358
251	0x3d575a24	0.0525762
252	0x3d05f08c	0.032700107
253	0xbdd483d2	-0.10376705
254	0x3d75d531	0.06001777
255	0xbc764a3d	-0.015032348
